<?xml version="1.0" ?>
<net name="defect" version="10">
	<layers>
		<layer id="0" name="image" type="Parameter" version="opset1">
			<data element_type="f32" shape="1, 3, 240, 240"/>
			<output>
				<port id="0" names="image" precision="FP32">
					<dim>1</dim>
					<dim>3</dim>
					<dim>240</dim>
					<dim>240</dim>
				</port>
			</output>
		</layer>
		<layer id="1" name="BatchNormalization_0/mean/Fused_Mul__copy" type="Const" version="opset1">
			<data element_type="f32" offset="0" shape="3, 1, 1, 3, 3" size="108"/>
			<output>
				<port id="0" names="conv2d_0.w_0" precision="FP32">
					<dim>3</dim>
					<dim>1</dim>
					<dim>1</dim>
					<dim>3</dim>
					<dim>3</dim>
				</port>
			</output>
		</layer>
		<layer id="2" name="Conv_0" type="GroupConvolution" version="opset1">
			<data auto_pad="explicit" dilations="1, 1" pads_begin="1, 1" pads_end="1, 1" strides="1, 1"/>
			<input>
				<port id="0" precision="FP32">
					<dim>1</dim>
					<dim>3</dim>
					<dim>240</dim>
					<dim>240</dim>
				</port>
				<port id="1" precision="FP32">
					<dim>3</dim>
					<dim>1</dim>
					<dim>1</dim>
					<dim>3</dim>
					<dim>3</dim>
				</port>
			</input>
			<output>
				<port id="2" precision="FP32">
					<dim>1</dim>
					<dim>3</dim>
					<dim>240</dim>
					<dim>240</dim>
				</port>
			</output>
		</layer>
		<layer id="3" name="data_add_4266881136" type="Const" version="opset1">
			<data element_type="f32" offset="108" shape="1, 3, 1, 1" size="12"/>
			<output>
				<port id="0" precision="FP32">
					<dim>1</dim>
					<dim>3</dim>
					<dim>1</dim>
					<dim>1</dim>
				</port>
			</output>
		</layer>
		<layer id="4" name="Add_0/Fused_Add_" type="Add" version="opset1">
			<data auto_broadcast="numpy"/>
			<input>
				<port id="0" precision="FP32">
					<dim>1</dim>
					<dim>3</dim>
					<dim>240</dim>
					<dim>240</dim>
				</port>
				<port id="1" precision="FP32">
					<dim>1</dim>
					<dim>3</dim>
					<dim>1</dim>
					<dim>1</dim>
				</port>
			</input>
			<output>
				<port id="2" names="batch_norm_0.tmp_2" precision="FP32">
					<dim>1</dim>
					<dim>3</dim>
					<dim>240</dim>
					<dim>240</dim>
				</port>
			</output>
		</layer>
		<layer id="5" name="Relu_0" type="ReLU" version="opset1">
			<input>
				<port id="0" precision="FP32">
					<dim>1</dim>
					<dim>3</dim>
					<dim>240</dim>
					<dim>240</dim>
				</port>
			</input>
			<output>
				<port id="1" names="relu_0.tmp_0" precision="FP32">
					<dim>1</dim>
					<dim>3</dim>
					<dim>240</dim>
					<dim>240</dim>
				</port>
			</output>
		</layer>
		<layer id="6" name="BatchNormalization_1/mean/Fused_Mul__copy" type="Const" version="opset1">
			<data element_type="f32" offset="120" shape="8, 3, 1, 1" size="96"/>
			<output>
				<port id="0" names="conv2d_1.w_0" precision="FP32">
					<dim>8</dim>
					<dim>3</dim>
					<dim>1</dim>
					<dim>1</dim>
				</port>
			</output>
		</layer>
		<layer id="7" name="Conv_1" type="Convolution" version="opset1">
			<data auto_pad="explicit" dilations="1, 1" pads_begin="0, 0" pads_end="0, 0" strides="1, 1"/>
			<input>
				<port id="0" precision="FP32">
					<dim>1</dim>
					<dim>3</dim>
					<dim>240</dim>
					<dim>240</dim>
				</port>
				<port id="1" precision="FP32">
					<dim>8</dim>
					<dim>3</dim>
					<dim>1</dim>
					<dim>1</dim>
				</port>
			</input>
			<output>
				<port id="2" precision="FP32">
					<dim>1</dim>
					<dim>8</dim>
					<dim>240</dim>
					<dim>240</dim>
				</port>
			</output>
		</layer>
		<layer id="8" name="data_add_426714267681883" type="Const" version="opset1">
			<data element_type="f32" offset="216" shape="1, 8, 1, 1" size="32"/>
			<output>
				<port id="0" precision="FP32">
					<dim>1</dim>
					<dim>8</dim>
					<dim>1</dim>
					<dim>1</dim>
				</port>
			</output>
		</layer>
		<layer id="9" name="Add_1/Fused_Add_" type="Add" version="opset1">
			<data auto_broadcast="numpy"/>
			<input>
				<port id="0" precision="FP32">
					<dim>1</dim>
					<dim>8</dim>
					<dim>240</dim>
					<dim>240</dim>
				</port>
				<port id="1" precision="FP32">
					<dim>1</dim>
					<dim>8</dim>
					<dim>1</dim>
					<dim>1</dim>
				</port>
			</input>
			<output>
				<port id="2" names="batch_norm_1.tmp_2" precision="FP32">
					<dim>1</dim>
					<dim>8</dim>
					<dim>240</dim>
					<dim>240</dim>
				</port>
			</output>
		</layer>
		<layer id="10" name="Relu_1" type="ReLU" version="opset1">
			<input>
				<port id="0" precision="FP32">
					<dim>1</dim>
					<dim>8</dim>
					<dim>240</dim>
					<dim>240</dim>
				</port>
			</input>
			<output>
				<port id="1" names="relu_1.tmp_0" precision="FP32">
					<dim>1</dim>
					<dim>8</dim>
					<dim>240</dim>
					<dim>240</dim>
				</port>
			</output>
		</layer>
		<layer id="11" name="BatchNormalization_2/mean/Fused_Mul__copy" type="Const" version="opset1">
			<data element_type="f32" offset="248" shape="8, 1, 1, 3, 3" size="288"/>
			<output>
				<port id="0" names="conv2d_2.w_0" precision="FP32">
					<dim>8</dim>
					<dim>1</dim>
					<dim>1</dim>
					<dim>3</dim>
					<dim>3</dim>
				</port>
			</output>
		</layer>
		<layer id="12" name="Conv_2" type="GroupConvolution" version="opset1">
			<data auto_pad="explicit" dilations="1, 1" pads_begin="1, 1" pads_end="1, 1" strides="1, 1"/>
			<input>
				<port id="0" precision="FP32">
					<dim>1</dim>
					<dim>8</dim>
					<dim>240</dim>
					<dim>240</dim>
				</port>
				<port id="1" precision="FP32">
					<dim>8</dim>
					<dim>1</dim>
					<dim>1</dim>
					<dim>3</dim>
					<dim>3</dim>
				</port>
			</input>
			<output>
				<port id="2" precision="FP32">
					<dim>1</dim>
					<dim>8</dim>
					<dim>240</dim>
					<dim>240</dim>
				</port>
			</output>
		</layer>
		<layer id="13" name="data_add_426794268481151" type="Const" version="opset1">
			<data element_type="f32" offset="536" shape="1, 8, 1, 1" size="32"/>
			<output>
				<port id="0" precision="FP32">
					<dim>1</dim>
					<dim>8</dim>
					<dim>1</dim>
					<dim>1</dim>
				</port>
			</output>
		</layer>
		<layer id="14" name="Add_2/Fused_Add_" type="Add" version="opset1">
			<data auto_broadcast="numpy"/>
			<input>
				<port id="0" precision="FP32">
					<dim>1</dim>
					<dim>8</dim>
					<dim>240</dim>
					<dim>240</dim>
				</port>
				<port id="1" precision="FP32">
					<dim>1</dim>
					<dim>8</dim>
					<dim>1</dim>
					<dim>1</dim>
				</port>
			</input>
			<output>
				<port id="2" names="batch_norm_2.tmp_2" precision="FP32">
					<dim>1</dim>
					<dim>8</dim>
					<dim>240</dim>
					<dim>240</dim>
				</port>
			</output>
		</layer>
		<layer id="15" name="Relu_2" type="ReLU" version="opset1">
			<input>
				<port id="0" precision="FP32">
					<dim>1</dim>
					<dim>8</dim>
					<dim>240</dim>
					<dim>240</dim>
				</port>
			</input>
			<output>
				<port id="1" names="relu_2.tmp_0" precision="FP32">
					<dim>1</dim>
					<dim>8</dim>
					<dim>240</dim>
					<dim>240</dim>
				</port>
			</output>
		</layer>
		<layer id="16" name="BatchNormalization_3/mean/Fused_Mul__copy" type="Const" version="opset1">
			<data element_type="f32" offset="568" shape="8, 8, 1, 1" size="256"/>
			<output>
				<port id="0" names="conv2d_3.w_0" precision="FP32">
					<dim>8</dim>
					<dim>8</dim>
					<dim>1</dim>
					<dim>1</dim>
				</port>
			</output>
		</layer>
		<layer id="17" name="Conv_3" type="Convolution" version="opset1">
			<data auto_pad="explicit" dilations="1, 1" pads_begin="0, 0" pads_end="0, 0" strides="1, 1"/>
			<input>
				<port id="0" precision="FP32">
					<dim>1</dim>
					<dim>8</dim>
					<dim>240</dim>
					<dim>240</dim>
				</port>
				<port id="1" precision="FP32">
					<dim>8</dim>
					<dim>8</dim>
					<dim>1</dim>
					<dim>1</dim>
				</port>
			</input>
			<output>
				<port id="2" precision="FP32">
					<dim>1</dim>
					<dim>8</dim>
					<dim>240</dim>
					<dim>240</dim>
				</port>
			</output>
		</layer>
		<layer id="18" name="data_add_426874269282720" type="Const" version="opset1">
			<data element_type="f32" offset="824" shape="1, 8, 1, 1" size="32"/>
			<output>
				<port id="0" precision="FP32">
					<dim>1</dim>
					<dim>8</dim>
					<dim>1</dim>
					<dim>1</dim>
				</port>
			</output>
		</layer>
		<layer id="19" name="Add_3/Fused_Add_" type="Add" version="opset1">
			<data auto_broadcast="numpy"/>
			<input>
				<port id="0" precision="FP32">
					<dim>1</dim>
					<dim>8</dim>
					<dim>240</dim>
					<dim>240</dim>
				</port>
				<port id="1" precision="FP32">
					<dim>1</dim>
					<dim>8</dim>
					<dim>1</dim>
					<dim>1</dim>
				</port>
			</input>
			<output>
				<port id="2" names="batch_norm_3.tmp_2" precision="FP32">
					<dim>1</dim>
					<dim>8</dim>
					<dim>240</dim>
					<dim>240</dim>
				</port>
			</output>
		</layer>
		<layer id="20" name="Relu_3" type="ReLU" version="opset1">
			<input>
				<port id="0" precision="FP32">
					<dim>1</dim>
					<dim>8</dim>
					<dim>240</dim>
					<dim>240</dim>
				</port>
			</input>
			<output>
				<port id="1" names="relu_3.tmp_0" precision="FP32">
					<dim>1</dim>
					<dim>8</dim>
					<dim>240</dim>
					<dim>240</dim>
				</port>
			</output>
		</layer>
		<layer id="21" name="MaxPool_0" type="MaxPool" version="opset1">
			<data auto_pad="explicit" kernel="2, 2" pads_begin="0, 0" pads_end="0, 0" rounding_type="ceil" strides="2, 2"/>
			<input>
				<port id="0" precision="FP32">
					<dim>1</dim>
					<dim>8</dim>
					<dim>240</dim>
					<dim>240</dim>
				</port>
			</input>
			<output>
				<port id="1" names="pool2d_0.tmp_0" precision="FP32">
					<dim>1</dim>
					<dim>8</dim>
					<dim>120</dim>
					<dim>120</dim>
				</port>
			</output>
		</layer>
		<layer id="22" name="BatchNormalization_4/mean/Fused_Mul__copy" type="Const" version="opset1">
			<data element_type="f32" offset="856" shape="8, 1, 1, 3, 3" size="288"/>
			<output>
				<port id="0" names="conv2d_4.w_0" precision="FP32">
					<dim>8</dim>
					<dim>1</dim>
					<dim>1</dim>
					<dim>3</dim>
					<dim>3</dim>
				</port>
			</output>
		</layer>
		<layer id="23" name="Conv_4" type="GroupConvolution" version="opset1">
			<data auto_pad="explicit" dilations="1, 1" pads_begin="1, 1" pads_end="1, 1" strides="1, 1"/>
			<input>
				<port id="0" precision="FP32">
					<dim>1</dim>
					<dim>8</dim>
					<dim>120</dim>
					<dim>120</dim>
				</port>
				<port id="1" precision="FP32">
					<dim>8</dim>
					<dim>1</dim>
					<dim>1</dim>
					<dim>3</dim>
					<dim>3</dim>
				</port>
			</input>
			<output>
				<port id="2" precision="FP32">
					<dim>1</dim>
					<dim>8</dim>
					<dim>120</dim>
					<dim>120</dim>
				</port>
			</output>
		</layer>
		<layer id="24" name="data_add_426954270080689" type="Const" version="opset1">
			<data element_type="f32" offset="1144" shape="1, 8, 1, 1" size="32"/>
			<output>
				<port id="0" precision="FP32">
					<dim>1</dim>
					<dim>8</dim>
					<dim>1</dim>
					<dim>1</dim>
				</port>
			</output>
		</layer>
		<layer id="25" name="Add_4/Fused_Add_" type="Add" version="opset1">
			<data auto_broadcast="numpy"/>
			<input>
				<port id="0" precision="FP32">
					<dim>1</dim>
					<dim>8</dim>
					<dim>120</dim>
					<dim>120</dim>
				</port>
				<port id="1" precision="FP32">
					<dim>1</dim>
					<dim>8</dim>
					<dim>1</dim>
					<dim>1</dim>
				</port>
			</input>
			<output>
				<port id="2" names="batch_norm_4.tmp_2" precision="FP32">
					<dim>1</dim>
					<dim>8</dim>
					<dim>120</dim>
					<dim>120</dim>
				</port>
			</output>
		</layer>
		<layer id="26" name="Relu_4" type="ReLU" version="opset1">
			<input>
				<port id="0" precision="FP32">
					<dim>1</dim>
					<dim>8</dim>
					<dim>120</dim>
					<dim>120</dim>
				</port>
			</input>
			<output>
				<port id="1" names="relu_4.tmp_0" precision="FP32">
					<dim>1</dim>
					<dim>8</dim>
					<dim>120</dim>
					<dim>120</dim>
				</port>
			</output>
		</layer>
		<layer id="27" name="BatchNormalization_5/mean/Fused_Mul__copy" type="Const" version="opset1">
			<data element_type="f32" offset="1176" shape="8, 8, 1, 1" size="256"/>
			<output>
				<port id="0" names="conv2d_5.w_0" precision="FP32">
					<dim>8</dim>
					<dim>8</dim>
					<dim>1</dim>
					<dim>1</dim>
				</port>
			</output>
		</layer>
		<layer id="28" name="Conv_5" type="Convolution" version="opset1">
			<data auto_pad="explicit" dilations="1, 1" pads_begin="0, 0" pads_end="0, 0" strides="1, 1"/>
			<input>
				<port id="0" precision="FP32">
					<dim>1</dim>
					<dim>8</dim>
					<dim>120</dim>
					<dim>120</dim>
				</port>
				<port id="1" precision="FP32">
					<dim>8</dim>
					<dim>8</dim>
					<dim>1</dim>
					<dim>1</dim>
				</port>
			</input>
			<output>
				<port id="2" precision="FP32">
					<dim>1</dim>
					<dim>8</dim>
					<dim>120</dim>
					<dim>120</dim>
				</port>
			</output>
		</layer>
		<layer id="29" name="data_add_427034270881712" type="Const" version="opset1">
			<data element_type="f32" offset="1432" shape="1, 8, 1, 1" size="32"/>
			<output>
				<port id="0" precision="FP32">
					<dim>1</dim>
					<dim>8</dim>
					<dim>1</dim>
					<dim>1</dim>
				</port>
			</output>
		</layer>
		<layer id="30" name="Add_5/Fused_Add_" type="Add" version="opset1">
			<data auto_broadcast="numpy"/>
			<input>
				<port id="0" precision="FP32">
					<dim>1</dim>
					<dim>8</dim>
					<dim>120</dim>
					<dim>120</dim>
				</port>
				<port id="1" precision="FP32">
					<dim>1</dim>
					<dim>8</dim>
					<dim>1</dim>
					<dim>1</dim>
				</port>
			</input>
			<output>
				<port id="2" names="batch_norm_5.tmp_2" precision="FP32">
					<dim>1</dim>
					<dim>8</dim>
					<dim>120</dim>
					<dim>120</dim>
				</port>
			</output>
		</layer>
		<layer id="31" name="Relu_5" type="ReLU" version="opset1">
			<input>
				<port id="0" precision="FP32">
					<dim>1</dim>
					<dim>8</dim>
					<dim>120</dim>
					<dim>120</dim>
				</port>
			</input>
			<output>
				<port id="1" names="relu_5.tmp_0" precision="FP32">
					<dim>1</dim>
					<dim>8</dim>
					<dim>120</dim>
					<dim>120</dim>
				</port>
			</output>
		</layer>
		<layer id="32" name="MaxPool_1" type="MaxPool" version="opset1">
			<data auto_pad="explicit" kernel="2, 2" pads_begin="0, 0" pads_end="0, 0" rounding_type="ceil" strides="2, 2"/>
			<input>
				<port id="0" precision="FP32">
					<dim>1</dim>
					<dim>8</dim>
					<dim>120</dim>
					<dim>120</dim>
				</port>
			</input>
			<output>
				<port id="1" names="pool2d_1.tmp_0" precision="FP32">
					<dim>1</dim>
					<dim>8</dim>
					<dim>60</dim>
					<dim>60</dim>
				</port>
			</output>
		</layer>
		<layer id="33" name="BatchNormalization_6/mean/Fused_Mul__copy" type="Const" version="opset1">
			<data element_type="f32" offset="1464" shape="8, 1, 1, 3, 3" size="288"/>
			<output>
				<port id="0" names="conv2d_6.w_0" precision="FP32">
					<dim>8</dim>
					<dim>1</dim>
					<dim>1</dim>
					<dim>3</dim>
					<dim>3</dim>
				</port>
			</output>
		</layer>
		<layer id="34" name="Conv_6" type="GroupConvolution" version="opset1">
			<data auto_pad="explicit" dilations="1, 1" pads_begin="1, 1" pads_end="1, 1" strides="1, 1"/>
			<input>
				<port id="0" precision="FP32">
					<dim>1</dim>
					<dim>8</dim>
					<dim>60</dim>
					<dim>60</dim>
				</port>
				<port id="1" precision="FP32">
					<dim>8</dim>
					<dim>1</dim>
					<dim>1</dim>
					<dim>3</dim>
					<dim>3</dim>
				</port>
			</input>
			<output>
				<port id="2" precision="FP32">
					<dim>1</dim>
					<dim>8</dim>
					<dim>60</dim>
					<dim>60</dim>
				</port>
			</output>
		</layer>
		<layer id="35" name="data_add_427114271681940" type="Const" version="opset1">
			<data element_type="f32" offset="1752" shape="1, 8, 1, 1" size="32"/>
			<output>
				<port id="0" precision="FP32">
					<dim>1</dim>
					<dim>8</dim>
					<dim>1</dim>
					<dim>1</dim>
				</port>
			</output>
		</layer>
		<layer id="36" name="Add_6/Fused_Add_" type="Add" version="opset1">
			<data auto_broadcast="numpy"/>
			<input>
				<port id="0" precision="FP32">
					<dim>1</dim>
					<dim>8</dim>
					<dim>60</dim>
					<dim>60</dim>
				</port>
				<port id="1" precision="FP32">
					<dim>1</dim>
					<dim>8</dim>
					<dim>1</dim>
					<dim>1</dim>
				</port>
			</input>
			<output>
				<port id="2" names="batch_norm_6.tmp_2" precision="FP32">
					<dim>1</dim>
					<dim>8</dim>
					<dim>60</dim>
					<dim>60</dim>
				</port>
			</output>
		</layer>
		<layer id="37" name="Relu_6" type="ReLU" version="opset1">
			<input>
				<port id="0" precision="FP32">
					<dim>1</dim>
					<dim>8</dim>
					<dim>60</dim>
					<dim>60</dim>
				</port>
			</input>
			<output>
				<port id="1" names="relu_6.tmp_0" precision="FP32">
					<dim>1</dim>
					<dim>8</dim>
					<dim>60</dim>
					<dim>60</dim>
				</port>
			</output>
		</layer>
		<layer id="38" name="BatchNormalization_7/mean/Fused_Mul__copy" type="Const" version="opset1">
			<data element_type="f32" offset="1784" shape="8, 8, 1, 1" size="256"/>
			<output>
				<port id="0" names="conv2d_7.w_0" precision="FP32">
					<dim>8</dim>
					<dim>8</dim>
					<dim>1</dim>
					<dim>1</dim>
				</port>
			</output>
		</layer>
		<layer id="39" name="Conv_7" type="Convolution" version="opset1">
			<data auto_pad="explicit" dilations="1, 1" pads_begin="0, 0" pads_end="0, 0" strides="1, 1"/>
			<input>
				<port id="0" precision="FP32">
					<dim>1</dim>
					<dim>8</dim>
					<dim>60</dim>
					<dim>60</dim>
				</port>
				<port id="1" precision="FP32">
					<dim>8</dim>
					<dim>8</dim>
					<dim>1</dim>
					<dim>1</dim>
				</port>
			</input>
			<output>
				<port id="2" precision="FP32">
					<dim>1</dim>
					<dim>8</dim>
					<dim>60</dim>
					<dim>60</dim>
				</port>
			</output>
		</layer>
		<layer id="40" name="data_add_427194272481271" type="Const" version="opset1">
			<data element_type="f32" offset="2040" shape="1, 8, 1, 1" size="32"/>
			<output>
				<port id="0" precision="FP32">
					<dim>1</dim>
					<dim>8</dim>
					<dim>1</dim>
					<dim>1</dim>
				</port>
			</output>
		</layer>
		<layer id="41" name="Add_7/Fused_Add_" type="Add" version="opset1">
			<data auto_broadcast="numpy"/>
			<input>
				<port id="0" precision="FP32">
					<dim>1</dim>
					<dim>8</dim>
					<dim>60</dim>
					<dim>60</dim>
				</port>
				<port id="1" precision="FP32">
					<dim>1</dim>
					<dim>8</dim>
					<dim>1</dim>
					<dim>1</dim>
				</port>
			</input>
			<output>
				<port id="2" names="batch_norm_7.tmp_2" precision="FP32">
					<dim>1</dim>
					<dim>8</dim>
					<dim>60</dim>
					<dim>60</dim>
				</port>
			</output>
		</layer>
		<layer id="42" name="Relu_7" type="ReLU" version="opset1">
			<input>
				<port id="0" precision="FP32">
					<dim>1</dim>
					<dim>8</dim>
					<dim>60</dim>
					<dim>60</dim>
				</port>
			</input>
			<output>
				<port id="1" names="relu_7.tmp_0" precision="FP32">
					<dim>1</dim>
					<dim>8</dim>
					<dim>60</dim>
					<dim>60</dim>
				</port>
			</output>
		</layer>
		<layer id="43" name="MaxPool_2" type="MaxPool" version="opset1">
			<data auto_pad="explicit" kernel="2, 2" pads_begin="0, 0" pads_end="0, 0" rounding_type="ceil" strides="2, 2"/>
			<input>
				<port id="0" precision="FP32">
					<dim>1</dim>
					<dim>8</dim>
					<dim>60</dim>
					<dim>60</dim>
				</port>
			</input>
			<output>
				<port id="1" names="pool2d_2.tmp_0" precision="FP32">
					<dim>1</dim>
					<dim>8</dim>
					<dim>30</dim>
					<dim>30</dim>
				</port>
			</output>
		</layer>
		<layer id="44" name="BatchNormalization_8/mean/Fused_Mul__copy" type="Const" version="opset1">
			<data element_type="f32" offset="2072" shape="8, 1, 1, 3, 3" size="288"/>
			<output>
				<port id="0" names="conv2d_8.w_0" precision="FP32">
					<dim>8</dim>
					<dim>1</dim>
					<dim>1</dim>
					<dim>3</dim>
					<dim>3</dim>
				</port>
			</output>
		</layer>
		<layer id="45" name="Conv_8" type="GroupConvolution" version="opset1">
			<data auto_pad="explicit" dilations="1, 1" pads_begin="1, 1" pads_end="1, 1" strides="1, 1"/>
			<input>
				<port id="0" precision="FP32">
					<dim>1</dim>
					<dim>8</dim>
					<dim>30</dim>
					<dim>30</dim>
				</port>
				<port id="1" precision="FP32">
					<dim>8</dim>
					<dim>1</dim>
					<dim>1</dim>
					<dim>3</dim>
					<dim>3</dim>
				</port>
			</input>
			<output>
				<port id="2" precision="FP32">
					<dim>1</dim>
					<dim>8</dim>
					<dim>30</dim>
					<dim>30</dim>
				</port>
			</output>
		</layer>
		<layer id="46" name="data_add_427274273280476" type="Const" version="opset1">
			<data element_type="f32" offset="2360" shape="1, 8, 1, 1" size="32"/>
			<output>
				<port id="0" precision="FP32">
					<dim>1</dim>
					<dim>8</dim>
					<dim>1</dim>
					<dim>1</dim>
				</port>
			</output>
		</layer>
		<layer id="47" name="Add_8/Fused_Add_" type="Add" version="opset1">
			<data auto_broadcast="numpy"/>
			<input>
				<port id="0" precision="FP32">
					<dim>1</dim>
					<dim>8</dim>
					<dim>30</dim>
					<dim>30</dim>
				</port>
				<port id="1" precision="FP32">
					<dim>1</dim>
					<dim>8</dim>
					<dim>1</dim>
					<dim>1</dim>
				</port>
			</input>
			<output>
				<port id="2" names="batch_norm_8.tmp_2" precision="FP32">
					<dim>1</dim>
					<dim>8</dim>
					<dim>30</dim>
					<dim>30</dim>
				</port>
			</output>
		</layer>
		<layer id="48" name="Relu_8" type="ReLU" version="opset1">
			<input>
				<port id="0" precision="FP32">
					<dim>1</dim>
					<dim>8</dim>
					<dim>30</dim>
					<dim>30</dim>
				</port>
			</input>
			<output>
				<port id="1" names="relu_8.tmp_0" precision="FP32">
					<dim>1</dim>
					<dim>8</dim>
					<dim>30</dim>
					<dim>30</dim>
				</port>
			</output>
		</layer>
		<layer id="49" name="BatchNormalization_9/mean/Fused_Mul__copy" type="Const" version="opset1">
			<data element_type="f32" offset="2392" shape="8, 8, 1, 1" size="256"/>
			<output>
				<port id="0" names="conv2d_9.w_0" precision="FP32">
					<dim>8</dim>
					<dim>8</dim>
					<dim>1</dim>
					<dim>1</dim>
				</port>
			</output>
		</layer>
		<layer id="50" name="Conv_9" type="Convolution" version="opset1">
			<data auto_pad="explicit" dilations="1, 1" pads_begin="0, 0" pads_end="0, 0" strides="1, 1"/>
			<input>
				<port id="0" precision="FP32">
					<dim>1</dim>
					<dim>8</dim>
					<dim>30</dim>
					<dim>30</dim>
				</port>
				<port id="1" precision="FP32">
					<dim>8</dim>
					<dim>8</dim>
					<dim>1</dim>
					<dim>1</dim>
				</port>
			</input>
			<output>
				<port id="2" precision="FP32">
					<dim>1</dim>
					<dim>8</dim>
					<dim>30</dim>
					<dim>30</dim>
				</port>
			</output>
		</layer>
		<layer id="51" name="data_add_427354274080857" type="Const" version="opset1">
			<data element_type="f32" offset="2648" shape="1, 8, 1, 1" size="32"/>
			<output>
				<port id="0" precision="FP32">
					<dim>1</dim>
					<dim>8</dim>
					<dim>1</dim>
					<dim>1</dim>
				</port>
			</output>
		</layer>
		<layer id="52" name="Add_9/Fused_Add_" type="Add" version="opset1">
			<data auto_broadcast="numpy"/>
			<input>
				<port id="0" precision="FP32">
					<dim>1</dim>
					<dim>8</dim>
					<dim>30</dim>
					<dim>30</dim>
				</port>
				<port id="1" precision="FP32">
					<dim>1</dim>
					<dim>8</dim>
					<dim>1</dim>
					<dim>1</dim>
				</port>
			</input>
			<output>
				<port id="2" names="batch_norm_9.tmp_2" precision="FP32">
					<dim>1</dim>
					<dim>8</dim>
					<dim>30</dim>
					<dim>30</dim>
				</port>
			</output>
		</layer>
		<layer id="53" name="Relu_9" type="ReLU" version="opset1">
			<input>
				<port id="0" precision="FP32">
					<dim>1</dim>
					<dim>8</dim>
					<dim>30</dim>
					<dim>30</dim>
				</port>
			</input>
			<output>
				<port id="1" names="relu_9.tmp_0" precision="FP32">
					<dim>1</dim>
					<dim>8</dim>
					<dim>30</dim>
					<dim>30</dim>
				</port>
			</output>
		</layer>
		<layer id="54" name="MaxPool_3" type="MaxPool" version="opset1">
			<data auto_pad="explicit" kernel="2, 2" pads_begin="0, 0" pads_end="0, 0" rounding_type="ceil" strides="2, 2"/>
			<input>
				<port id="0" precision="FP32">
					<dim>1</dim>
					<dim>8</dim>
					<dim>30</dim>
					<dim>30</dim>
				</port>
			</input>
			<output>
				<port id="1" names="pool2d_3.tmp_0" precision="FP32">
					<dim>1</dim>
					<dim>8</dim>
					<dim>15</dim>
					<dim>15</dim>
				</port>
			</output>
		</layer>
		<layer id="55" name="BatchNormalization_10/mean/Fused_Mul__copy" type="Const" version="opset1">
			<data element_type="f32" offset="2680" shape="8, 1, 1, 3, 3" size="288"/>
			<output>
				<port id="0" names="conv2d_10.w_0" precision="FP32">
					<dim>8</dim>
					<dim>1</dim>
					<dim>1</dim>
					<dim>3</dim>
					<dim>3</dim>
				</port>
			</output>
		</layer>
		<layer id="56" name="Conv_10" type="GroupConvolution" version="opset1">
			<data auto_pad="explicit" dilations="1, 1" pads_begin="1, 1" pads_end="1, 1" strides="1, 1"/>
			<input>
				<port id="0" precision="FP32">
					<dim>1</dim>
					<dim>8</dim>
					<dim>15</dim>
					<dim>15</dim>
				</port>
				<port id="1" precision="FP32">
					<dim>8</dim>
					<dim>1</dim>
					<dim>1</dim>
					<dim>3</dim>
					<dim>3</dim>
				</port>
			</input>
			<output>
				<port id="2" precision="FP32">
					<dim>1</dim>
					<dim>8</dim>
					<dim>15</dim>
					<dim>15</dim>
				</port>
			</output>
		</layer>
		<layer id="57" name="data_add_427434274882708" type="Const" version="opset1">
			<data element_type="f32" offset="2968" shape="1, 8, 1, 1" size="32"/>
			<output>
				<port id="0" precision="FP32">
					<dim>1</dim>
					<dim>8</dim>
					<dim>1</dim>
					<dim>1</dim>
				</port>
			</output>
		</layer>
		<layer id="58" name="Add_10/Fused_Add_" type="Add" version="opset1">
			<data auto_broadcast="numpy"/>
			<input>
				<port id="0" precision="FP32">
					<dim>1</dim>
					<dim>8</dim>
					<dim>15</dim>
					<dim>15</dim>
				</port>
				<port id="1" precision="FP32">
					<dim>1</dim>
					<dim>8</dim>
					<dim>1</dim>
					<dim>1</dim>
				</port>
			</input>
			<output>
				<port id="2" names="batch_norm_10.tmp_2" precision="FP32">
					<dim>1</dim>
					<dim>8</dim>
					<dim>15</dim>
					<dim>15</dim>
				</port>
			</output>
		</layer>
		<layer id="59" name="Relu_10" type="ReLU" version="opset1">
			<input>
				<port id="0" precision="FP32">
					<dim>1</dim>
					<dim>8</dim>
					<dim>15</dim>
					<dim>15</dim>
				</port>
			</input>
			<output>
				<port id="1" names="relu_10.tmp_0" precision="FP32">
					<dim>1</dim>
					<dim>8</dim>
					<dim>15</dim>
					<dim>15</dim>
				</port>
			</output>
		</layer>
		<layer id="60" name="BatchNormalization_11/mean/Fused_Mul__copy" type="Const" version="opset1">
			<data element_type="f32" offset="3000" shape="8, 8, 1, 1" size="256"/>
			<output>
				<port id="0" names="conv2d_11.w_0" precision="FP32">
					<dim>8</dim>
					<dim>8</dim>
					<dim>1</dim>
					<dim>1</dim>
				</port>
			</output>
		</layer>
		<layer id="61" name="Conv_11" type="Convolution" version="opset1">
			<data auto_pad="explicit" dilations="1, 1" pads_begin="0, 0" pads_end="0, 0" strides="1, 1"/>
			<input>
				<port id="0" precision="FP32">
					<dim>1</dim>
					<dim>8</dim>
					<dim>15</dim>
					<dim>15</dim>
				</port>
				<port id="1" precision="FP32">
					<dim>8</dim>
					<dim>8</dim>
					<dim>1</dim>
					<dim>1</dim>
				</port>
			</input>
			<output>
				<port id="2" precision="FP32">
					<dim>1</dim>
					<dim>8</dim>
					<dim>15</dim>
					<dim>15</dim>
				</port>
			</output>
		</layer>
		<layer id="62" name="data_add_427514275680386" type="Const" version="opset1">
			<data element_type="f32" offset="3256" shape="1, 8, 1, 1" size="32"/>
			<output>
				<port id="0" precision="FP32">
					<dim>1</dim>
					<dim>8</dim>
					<dim>1</dim>
					<dim>1</dim>
				</port>
			</output>
		</layer>
		<layer id="63" name="Add_11/Fused_Add_" type="Add" version="opset1">
			<data auto_broadcast="numpy"/>
			<input>
				<port id="0" precision="FP32">
					<dim>1</dim>
					<dim>8</dim>
					<dim>15</dim>
					<dim>15</dim>
				</port>
				<port id="1" precision="FP32">
					<dim>1</dim>
					<dim>8</dim>
					<dim>1</dim>
					<dim>1</dim>
				</port>
			</input>
			<output>
				<port id="2" names="batch_norm_11.tmp_2" precision="FP32">
					<dim>1</dim>
					<dim>8</dim>
					<dim>15</dim>
					<dim>15</dim>
				</port>
			</output>
		</layer>
		<layer id="64" name="Relu_11" type="ReLU" version="opset1">
			<input>
				<port id="0" precision="FP32">
					<dim>1</dim>
					<dim>8</dim>
					<dim>15</dim>
					<dim>15</dim>
				</port>
			</input>
			<output>
				<port id="1" names="relu_11.tmp_0" precision="FP32">
					<dim>1</dim>
					<dim>8</dim>
					<dim>15</dim>
					<dim>15</dim>
				</port>
			</output>
		</layer>
		<layer id="65" name="MaxPool_4" type="MaxPool" version="opset1">
			<data auto_pad="explicit" kernel="2, 2" pads_begin="0, 0" pads_end="0, 0" rounding_type="ceil" strides="2, 2"/>
			<input>
				<port id="0" precision="FP32">
					<dim>1</dim>
					<dim>8</dim>
					<dim>15</dim>
					<dim>15</dim>
				</port>
			</input>
			<output>
				<port id="1" names="pool2d_4.tmp_0" precision="FP32">
					<dim>1</dim>
					<dim>8</dim>
					<dim>8</dim>
					<dim>8</dim>
				</port>
			</output>
		</layer>
		<layer id="66" name="BatchNormalization_12/mean/Fused_Mul__copy" type="Const" version="opset1">
			<data element_type="f32" offset="3288" shape="8, 1, 1, 3, 3" size="288"/>
			<output>
				<port id="0" names="conv2d_12.w_0" precision="FP32">
					<dim>8</dim>
					<dim>1</dim>
					<dim>1</dim>
					<dim>3</dim>
					<dim>3</dim>
				</port>
			</output>
		</layer>
		<layer id="67" name="Conv_12" type="GroupConvolution" version="opset1">
			<data auto_pad="explicit" dilations="1, 1" pads_begin="1, 1" pads_end="1, 1" strides="1, 1"/>
			<input>
				<port id="0" precision="FP32">
					<dim>1</dim>
					<dim>8</dim>
					<dim>8</dim>
					<dim>8</dim>
				</port>
				<port id="1" precision="FP32">
					<dim>8</dim>
					<dim>1</dim>
					<dim>1</dim>
					<dim>3</dim>
					<dim>3</dim>
				</port>
			</input>
			<output>
				<port id="2" precision="FP32">
					<dim>1</dim>
					<dim>8</dim>
					<dim>8</dim>
					<dim>8</dim>
				</port>
			</output>
		</layer>
		<layer id="68" name="data_add_427594276482753" type="Const" version="opset1">
			<data element_type="f32" offset="3576" shape="1, 8, 1, 1" size="32"/>
			<output>
				<port id="0" precision="FP32">
					<dim>1</dim>
					<dim>8</dim>
					<dim>1</dim>
					<dim>1</dim>
				</port>
			</output>
		</layer>
		<layer id="69" name="Add_12/Fused_Add_" type="Add" version="opset1">
			<data auto_broadcast="numpy"/>
			<input>
				<port id="0" precision="FP32">
					<dim>1</dim>
					<dim>8</dim>
					<dim>8</dim>
					<dim>8</dim>
				</port>
				<port id="1" precision="FP32">
					<dim>1</dim>
					<dim>8</dim>
					<dim>1</dim>
					<dim>1</dim>
				</port>
			</input>
			<output>
				<port id="2" names="batch_norm_12.tmp_2" precision="FP32">
					<dim>1</dim>
					<dim>8</dim>
					<dim>8</dim>
					<dim>8</dim>
				</port>
			</output>
		</layer>
		<layer id="70" name="Relu_12" type="ReLU" version="opset1">
			<input>
				<port id="0" precision="FP32">
					<dim>1</dim>
					<dim>8</dim>
					<dim>8</dim>
					<dim>8</dim>
				</port>
			</input>
			<output>
				<port id="1" names="relu_12.tmp_0" precision="FP32">
					<dim>1</dim>
					<dim>8</dim>
					<dim>8</dim>
					<dim>8</dim>
				</port>
			</output>
		</layer>
		<layer id="71" name="BatchNormalization_13/mean/Fused_Mul__copy" type="Const" version="opset1">
			<data element_type="f32" offset="3608" shape="8, 8, 1, 1" size="256"/>
			<output>
				<port id="0" names="conv2d_13.w_0" precision="FP32">
					<dim>8</dim>
					<dim>8</dim>
					<dim>1</dim>
					<dim>1</dim>
				</port>
			</output>
		</layer>
		<layer id="72" name="Conv_13" type="Convolution" version="opset1">
			<data auto_pad="explicit" dilations="1, 1" pads_begin="0, 0" pads_end="0, 0" strides="1, 1"/>
			<input>
				<port id="0" precision="FP32">
					<dim>1</dim>
					<dim>8</dim>
					<dim>8</dim>
					<dim>8</dim>
				</port>
				<port id="1" precision="FP32">
					<dim>8</dim>
					<dim>8</dim>
					<dim>1</dim>
					<dim>1</dim>
				</port>
			</input>
			<output>
				<port id="2" precision="FP32">
					<dim>1</dim>
					<dim>8</dim>
					<dim>8</dim>
					<dim>8</dim>
				</port>
			</output>
		</layer>
		<layer id="73" name="data_add_427674277282654" type="Const" version="opset1">
			<data element_type="f32" offset="3864" shape="1, 8, 1, 1" size="32"/>
			<output>
				<port id="0" precision="FP32">
					<dim>1</dim>
					<dim>8</dim>
					<dim>1</dim>
					<dim>1</dim>
				</port>
			</output>
		</layer>
		<layer id="74" name="Add_13/Fused_Add_" type="Add" version="opset1">
			<data auto_broadcast="numpy"/>
			<input>
				<port id="0" precision="FP32">
					<dim>1</dim>
					<dim>8</dim>
					<dim>8</dim>
					<dim>8</dim>
				</port>
				<port id="1" precision="FP32">
					<dim>1</dim>
					<dim>8</dim>
					<dim>1</dim>
					<dim>1</dim>
				</port>
			</input>
			<output>
				<port id="2" names="batch_norm_13.tmp_2" precision="FP32">
					<dim>1</dim>
					<dim>8</dim>
					<dim>8</dim>
					<dim>8</dim>
				</port>
			</output>
		</layer>
		<layer id="75" name="Relu_13" type="ReLU" version="opset1">
			<input>
				<port id="0" precision="FP32">
					<dim>1</dim>
					<dim>8</dim>
					<dim>8</dim>
					<dim>8</dim>
				</port>
			</input>
			<output>
				<port id="1" names="relu_13.tmp_0" precision="FP32">
					<dim>1</dim>
					<dim>8</dim>
					<dim>8</dim>
					<dim>8</dim>
				</port>
			</output>
		</layer>
		<layer id="76" name="BatchNormalization_14/mean/Fused_Mul__copy" type="Const" version="opset1">
			<data element_type="f32" offset="3896" shape="8, 1, 1, 3, 3" size="288"/>
			<output>
				<port id="0" names="conv2d_14.w_0" precision="FP32">
					<dim>8</dim>
					<dim>1</dim>
					<dim>1</dim>
					<dim>3</dim>
					<dim>3</dim>
				</port>
			</output>
		</layer>
		<layer id="77" name="Conv_14" type="GroupConvolution" version="opset1">
			<data auto_pad="explicit" dilations="1, 1" pads_begin="1, 1" pads_end="1, 1" strides="1, 1"/>
			<input>
				<port id="0" precision="FP32">
					<dim>1</dim>
					<dim>8</dim>
					<dim>8</dim>
					<dim>8</dim>
				</port>
				<port id="1" precision="FP32">
					<dim>8</dim>
					<dim>1</dim>
					<dim>1</dim>
					<dim>3</dim>
					<dim>3</dim>
				</port>
			</input>
			<output>
				<port id="2" precision="FP32">
					<dim>1</dim>
					<dim>8</dim>
					<dim>8</dim>
					<dim>8</dim>
				</port>
			</output>
		</layer>
		<layer id="78" name="data_add_427754278081796" type="Const" version="opset1">
			<data element_type="f32" offset="4184" shape="1, 8, 1, 1" size="32"/>
			<output>
				<port id="0" precision="FP32">
					<dim>1</dim>
					<dim>8</dim>
					<dim>1</dim>
					<dim>1</dim>
				</port>
			</output>
		</layer>
		<layer id="79" name="Add_14/Fused_Add_" type="Add" version="opset1">
			<data auto_broadcast="numpy"/>
			<input>
				<port id="0" precision="FP32">
					<dim>1</dim>
					<dim>8</dim>
					<dim>8</dim>
					<dim>8</dim>
				</port>
				<port id="1" precision="FP32">
					<dim>1</dim>
					<dim>8</dim>
					<dim>1</dim>
					<dim>1</dim>
				</port>
			</input>
			<output>
				<port id="2" names="batch_norm_14.tmp_2" precision="FP32">
					<dim>1</dim>
					<dim>8</dim>
					<dim>8</dim>
					<dim>8</dim>
				</port>
			</output>
		</layer>
		<layer id="80" name="Relu_14" type="ReLU" version="opset1">
			<input>
				<port id="0" precision="FP32">
					<dim>1</dim>
					<dim>8</dim>
					<dim>8</dim>
					<dim>8</dim>
				</port>
			</input>
			<output>
				<port id="1" names="relu_14.tmp_0" precision="FP32">
					<dim>1</dim>
					<dim>8</dim>
					<dim>8</dim>
					<dim>8</dim>
				</port>
			</output>
		</layer>
		<layer id="81" name="BatchNormalization_15/mean/Fused_Mul__copy" type="Const" version="opset1">
			<data element_type="f32" offset="4216" shape="8, 8, 1, 1" size="256"/>
			<output>
				<port id="0" names="conv2d_15.w_0" precision="FP32">
					<dim>8</dim>
					<dim>8</dim>
					<dim>1</dim>
					<dim>1</dim>
				</port>
			</output>
		</layer>
		<layer id="82" name="Conv_15" type="Convolution" version="opset1">
			<data auto_pad="explicit" dilations="1, 1" pads_begin="0, 0" pads_end="0, 0" strides="1, 1"/>
			<input>
				<port id="0" precision="FP32">
					<dim>1</dim>
					<dim>8</dim>
					<dim>8</dim>
					<dim>8</dim>
				</port>
				<port id="1" precision="FP32">
					<dim>8</dim>
					<dim>8</dim>
					<dim>1</dim>
					<dim>1</dim>
				</port>
			</input>
			<output>
				<port id="2" precision="FP32">
					<dim>1</dim>
					<dim>8</dim>
					<dim>8</dim>
					<dim>8</dim>
				</port>
			</output>
		</layer>
		<layer id="83" name="data_add_427834278882666" type="Const" version="opset1">
			<data element_type="f32" offset="4472" shape="1, 8, 1, 1" size="32"/>
			<output>
				<port id="0" precision="FP32">
					<dim>1</dim>
					<dim>8</dim>
					<dim>1</dim>
					<dim>1</dim>
				</port>
			</output>
		</layer>
		<layer id="84" name="Add_15/Fused_Add_" type="Add" version="opset1">
			<data auto_broadcast="numpy"/>
			<input>
				<port id="0" precision="FP32">
					<dim>1</dim>
					<dim>8</dim>
					<dim>8</dim>
					<dim>8</dim>
				</port>
				<port id="1" precision="FP32">
					<dim>1</dim>
					<dim>8</dim>
					<dim>1</dim>
					<dim>1</dim>
				</port>
			</input>
			<output>
				<port id="2" names="batch_norm_15.tmp_2" precision="FP32">
					<dim>1</dim>
					<dim>8</dim>
					<dim>8</dim>
					<dim>8</dim>
				</port>
			</output>
		</layer>
		<layer id="85" name="Relu_15" type="ReLU" version="opset1">
			<input>
				<port id="0" precision="FP32">
					<dim>1</dim>
					<dim>8</dim>
					<dim>8</dim>
					<dim>8</dim>
				</port>
			</input>
			<output>
				<port id="1" names="relu_15.tmp_0" precision="FP32">
					<dim>1</dim>
					<dim>8</dim>
					<dim>8</dim>
					<dim>8</dim>
				</port>
			</output>
		</layer>
		<layer id="86" name="Concat_0" type="Concat" version="opset1">
			<data axis="1"/>
			<input>
				<port id="0" precision="FP32">
					<dim>1</dim>
					<dim>8</dim>
					<dim>8</dim>
					<dim>8</dim>
				</port>
				<port id="1" precision="FP32">
					<dim>1</dim>
					<dim>8</dim>
					<dim>8</dim>
					<dim>8</dim>
				</port>
			</input>
			<output>
				<port id="2" names="concat_0.tmp_0" precision="FP32">
					<dim>1</dim>
					<dim>16</dim>
					<dim>8</dim>
					<dim>8</dim>
				</port>
			</output>
		</layer>
		<layer id="87" name="BatchNormalization_16/mean/Fused_Mul__copy" type="Const" version="opset1">
			<data element_type="f32" offset="4504" shape="16, 1, 1, 3, 3" size="576"/>
			<output>
				<port id="0" names="conv2d_16.w_0" precision="FP32">
					<dim>16</dim>
					<dim>1</dim>
					<dim>1</dim>
					<dim>3</dim>
					<dim>3</dim>
				</port>
			</output>
		</layer>
		<layer id="88" name="Conv_16" type="GroupConvolution" version="opset1">
			<data auto_pad="explicit" dilations="1, 1" pads_begin="1, 1" pads_end="1, 1" strides="1, 1"/>
			<input>
				<port id="0" precision="FP32">
					<dim>1</dim>
					<dim>16</dim>
					<dim>8</dim>
					<dim>8</dim>
				</port>
				<port id="1" precision="FP32">
					<dim>16</dim>
					<dim>1</dim>
					<dim>1</dim>
					<dim>3</dim>
					<dim>3</dim>
				</port>
			</input>
			<output>
				<port id="2" precision="FP32">
					<dim>1</dim>
					<dim>16</dim>
					<dim>8</dim>
					<dim>8</dim>
				</port>
			</output>
		</layer>
		<layer id="89" name="data_add_427914279680362" type="Const" version="opset1">
			<data element_type="f32" offset="5080" shape="1, 16, 1, 1" size="64"/>
			<output>
				<port id="0" precision="FP32">
					<dim>1</dim>
					<dim>16</dim>
					<dim>1</dim>
					<dim>1</dim>
				</port>
			</output>
		</layer>
		<layer id="90" name="Add_16/Fused_Add_" type="Add" version="opset1">
			<data auto_broadcast="numpy"/>
			<input>
				<port id="0" precision="FP32">
					<dim>1</dim>
					<dim>16</dim>
					<dim>8</dim>
					<dim>8</dim>
				</port>
				<port id="1" precision="FP32">
					<dim>1</dim>
					<dim>16</dim>
					<dim>1</dim>
					<dim>1</dim>
				</port>
			</input>
			<output>
				<port id="2" names="batch_norm_16.tmp_2" precision="FP32">
					<dim>1</dim>
					<dim>16</dim>
					<dim>8</dim>
					<dim>8</dim>
				</port>
			</output>
		</layer>
		<layer id="91" name="Relu_16" type="ReLU" version="opset1">
			<input>
				<port id="0" precision="FP32">
					<dim>1</dim>
					<dim>16</dim>
					<dim>8</dim>
					<dim>8</dim>
				</port>
			</input>
			<output>
				<port id="1" names="relu_16.tmp_0" precision="FP32">
					<dim>1</dim>
					<dim>16</dim>
					<dim>8</dim>
					<dim>8</dim>
				</port>
			</output>
		</layer>
		<layer id="92" name="BatchNormalization_17/mean/Fused_Mul__copy" type="Const" version="opset1">
			<data element_type="f32" offset="5144" shape="8, 16, 1, 1" size="512"/>
			<output>
				<port id="0" names="conv2d_17.w_0" precision="FP32">
					<dim>8</dim>
					<dim>16</dim>
					<dim>1</dim>
					<dim>1</dim>
				</port>
			</output>
		</layer>
		<layer id="93" name="Conv_17" type="Convolution" version="opset1">
			<data auto_pad="explicit" dilations="1, 1" pads_begin="0, 0" pads_end="0, 0" strides="1, 1"/>
			<input>
				<port id="0" precision="FP32">
					<dim>1</dim>
					<dim>16</dim>
					<dim>8</dim>
					<dim>8</dim>
				</port>
				<port id="1" precision="FP32">
					<dim>8</dim>
					<dim>16</dim>
					<dim>1</dim>
					<dim>1</dim>
				</port>
			</input>
			<output>
				<port id="2" precision="FP32">
					<dim>1</dim>
					<dim>8</dim>
					<dim>8</dim>
					<dim>8</dim>
				</port>
			</output>
		</layer>
		<layer id="94" name="data_add_427994280482798" type="Const" version="opset1">
			<data element_type="f32" offset="5656" shape="1, 8, 1, 1" size="32"/>
			<output>
				<port id="0" precision="FP32">
					<dim>1</dim>
					<dim>8</dim>
					<dim>1</dim>
					<dim>1</dim>
				</port>
			</output>
		</layer>
		<layer id="95" name="Add_17/Fused_Add_" type="Add" version="opset1">
			<data auto_broadcast="numpy"/>
			<input>
				<port id="0" precision="FP32">
					<dim>1</dim>
					<dim>8</dim>
					<dim>8</dim>
					<dim>8</dim>
				</port>
				<port id="1" precision="FP32">
					<dim>1</dim>
					<dim>8</dim>
					<dim>1</dim>
					<dim>1</dim>
				</port>
			</input>
			<output>
				<port id="2" names="batch_norm_17.tmp_2" precision="FP32">
					<dim>1</dim>
					<dim>8</dim>
					<dim>8</dim>
					<dim>8</dim>
				</port>
			</output>
		</layer>
		<layer id="96" name="Relu_17" type="ReLU" version="opset1">
			<input>
				<port id="0" precision="FP32">
					<dim>1</dim>
					<dim>8</dim>
					<dim>8</dim>
					<dim>8</dim>
				</port>
			</input>
			<output>
				<port id="1" names="relu_17.tmp_0" precision="FP32">
					<dim>1</dim>
					<dim>8</dim>
					<dim>8</dim>
					<dim>8</dim>
				</port>
			</output>
		</layer>
		<layer id="97" name="Shape_1" type="ShapeOf" version="opset3">
			<data output_type="i64"/>
			<input>
				<port id="0" precision="FP32">
					<dim>1</dim>
					<dim>8</dim>
					<dim>8</dim>
					<dim>8</dim>
				</port>
			</input>
			<output>
				<port id="1" names="Shape_1" precision="I64">
					<dim>4</dim>
				</port>
			</output>
		</layer>
		<layer id="98" name="Slice_1/Concat2445482213" type="Const" version="opset1">
			<data element_type="i64" offset="5688" shape="1" size="8"/>
			<output>
				<port id="0" precision="I64">
					<dim>1</dim>
				</port>
			</output>
		</layer>
		<layer id="99" name="Slice_1/Concat244442445582300" type="Const" version="opset1">
			<data element_type="i64" offset="5696" shape="1" size="8"/>
			<output>
				<port id="0" precision="I64">
					<dim>1</dim>
				</port>
			</output>
		</layer>
		<layer id="100" name="Slice_1/Strides2445681043" type="Const" version="opset1">
			<data element_type="i64" offset="5704" shape="1" size="8"/>
			<output>
				<port id="0" precision="I64">
					<dim>1</dim>
				</port>
			</output>
		</layer>
		<layer id="101" name="Slice_1" type="StridedSlice" version="opset1">
			<data begin_mask="0" ellipsis_mask="0" end_mask="0" new_axis_mask="0" shrink_axis_mask="0"/>
			<input>
				<port id="0" precision="I64">
					<dim>4</dim>
				</port>
				<port id="1" precision="I64">
					<dim>1</dim>
				</port>
				<port id="2" precision="I64">
					<dim>1</dim>
				</port>
				<port id="3" precision="I64">
					<dim>1</dim>
				</port>
			</input>
			<output>
				<port id="4" names="Slice_1" precision="I64">
					<dim>2</dim>
				</port>
			</output>
		</layer>
		<layer id="102" name="Shape_0" type="ShapeOf" version="opset3">
			<data output_type="i64"/>
			<input>
				<port id="0" precision="FP32">
					<dim>1</dim>
					<dim>8</dim>
					<dim>15</dim>
					<dim>15</dim>
				</port>
			</input>
			<output>
				<port id="1" names="Shape_0" precision="I64">
					<dim>4</dim>
				</port>
			</output>
		</layer>
		<layer id="103" name="Cast_0" type="Convert" version="opset1">
			<data destination_type="i32"/>
			<input>
				<port id="0" precision="I64">
					<dim>4</dim>
				</port>
			</input>
			<output>
				<port id="1" names="shape_0.tmp_0" precision="I32">
					<dim>4</dim>
				</port>
			</output>
		</layer>
		<layer id="104" name="Slice_0/Concat2441880653" type="Const" version="opset1">
			<data element_type="i64" offset="5696" shape="1" size="8"/>
			<output>
				<port id="0" precision="I64">
					<dim>1</dim>
				</port>
			</output>
		</layer>
		<layer id="105" name="Slice_0/Concat244082441980599" type="Const" version="opset1">
			<data element_type="i64" offset="5712" shape="1" size="8"/>
			<output>
				<port id="0" precision="I64">
					<dim>1</dim>
				</port>
			</output>
		</layer>
		<layer id="106" name="Slice_0/Strides2442082270" type="Const" version="opset1">
			<data element_type="i64" offset="5704" shape="1" size="8"/>
			<output>
				<port id="0" precision="I64">
					<dim>1</dim>
				</port>
			</output>
		</layer>
		<layer id="107" name="Slice_0" type="StridedSlice" version="opset1">
			<data begin_mask="0" ellipsis_mask="0" end_mask="0" new_axis_mask="0" shrink_axis_mask="0"/>
			<input>
				<port id="0" precision="I32">
					<dim>4</dim>
				</port>
				<port id="1" precision="I64">
					<dim>1</dim>
				</port>
				<port id="2" precision="I64">
					<dim>1</dim>
				</port>
				<port id="3" precision="I64">
					<dim>1</dim>
				</port>
			</input>
			<output>
				<port id="4" names="shape_0.tmp_0_slice_0" precision="I32">
					<dim>2</dim>
				</port>
			</output>
		</layer>
		<layer id="108" name="Cast_1" type="Convert" version="opset1">
			<data destination_type="i64"/>
			<input>
				<port id="0" precision="I32">
					<dim>2</dim>
				</port>
			</input>
			<output>
				<port id="1" names="Cast_1" precision="I64">
					<dim>2</dim>
				</port>
			</output>
		</layer>
		<layer id="109" name="Concat_1" type="Concat" version="opset1">
			<data axis="0"/>
			<input>
				<port id="0" precision="I64">
					<dim>2</dim>
				</port>
				<port id="1" precision="I64">
					<dim>2</dim>
				</port>
			</input>
			<output>
				<port id="2" names="Concat_1" precision="I64">
					<dim>4</dim>
				</port>
			</output>
		</layer>
		<layer id="110" name="Resize_0/StridedSlice_sizes_input_port_1/value1762881856" type="Const" version="opset1">
			<data element_type="i64" offset="5696" shape="1" size="8"/>
			<output>
				<port id="0" precision="I64">
					<dim>1</dim>
				</port>
			</output>
		</layer>
		<layer id="111" name="Resize_0/StridedSlice_sizes_input_port_2/value1763081604" type="Const" version="opset1">
			<data element_type="i64" offset="5712" shape="1" size="8"/>
			<output>
				<port id="0" precision="I64">
					<dim>1</dim>
				</port>
			</output>
		</layer>
		<layer id="112" name="Resize_0/StridedSlice_sizes_input_port_3/value1763282054" type="Const" version="opset1">
			<data element_type="i64" offset="5704" shape="1" size="8"/>
			<output>
				<port id="0" precision="I64">
					<dim>1</dim>
				</port>
			</output>
		</layer>
		<layer id="113" name="Resize_0/StridedSlice_sizes" type="StridedSlice" version="opset1">
			<data begin_mask="0" ellipsis_mask="0" end_mask="0" new_axis_mask="0" shrink_axis_mask="0"/>
			<input>
				<port id="0" precision="I64">
					<dim>4</dim>
				</port>
				<port id="1" precision="I64">
					<dim>1</dim>
				</port>
				<port id="2" precision="I64">
					<dim>1</dim>
				</port>
				<port id="3" precision="I64">
					<dim>1</dim>
				</port>
			</input>
			<output>
				<port id="4" precision="I64">
					<dim>2</dim>
				</port>
			</output>
		</layer>
		<layer id="114" name="17648" type="Convert" version="opset1">
			<data destination_type="f32"/>
			<input>
				<port id="0" precision="I64">
					<dim>4</dim>
				</port>
			</input>
			<output>
				<port id="1" precision="FP32">
					<dim>4</dim>
				</port>
			</output>
		</layer>
		<layer id="115" name="Resize_0/ShapeOf" type="ShapeOf" version="opset3">
			<data output_type="i64"/>
			<input>
				<port id="0" precision="FP32">
					<dim>1</dim>
					<dim>8</dim>
					<dim>8</dim>
					<dim>8</dim>
				</port>
			</input>
			<output>
				<port id="1" precision="I64">
					<dim>4</dim>
				</port>
			</output>
		</layer>
		<layer id="116" name="17647" type="Convert" version="opset1">
			<data destination_type="f32"/>
			<input>
				<port id="0" precision="I64">
					<dim>4</dim>
				</port>
			</input>
			<output>
				<port id="1" precision="FP32">
					<dim>4</dim>
				</port>
			</output>
		</layer>
		<layer id="117" name="Resize_0/Div" type="Divide" version="opset1">
			<data auto_broadcast="numpy" m_pythondiv="true"/>
			<input>
				<port id="0" precision="FP32">
					<dim>4</dim>
				</port>
				<port id="1" precision="FP32">
					<dim>4</dim>
				</port>
			</input>
			<output>
				<port id="2" precision="FP32">
					<dim>4</dim>
				</port>
			</output>
		</layer>
		<layer id="118" name="Resize_0/Add_input_port_1/value1764682774" type="Const" version="opset1">
			<data element_type="f32" offset="5720" shape="1" size="4"/>
			<output>
				<port id="0" precision="FP32">
					<dim>1</dim>
				</port>
			</output>
		</layer>
		<layer id="119" name="Resize_0/Add" type="Add" version="opset1">
			<data auto_broadcast="numpy"/>
			<input>
				<port id="0" precision="FP32">
					<dim>4</dim>
				</port>
				<port id="1" precision="FP32">
					<dim>1</dim>
				</port>
			</input>
			<output>
				<port id="2" precision="FP32">
					<dim>4</dim>
				</port>
			</output>
		</layer>
		<layer id="120" name="Resize_0/StridedSlice_scales_input_port_1/value1763581865" type="Const" version="opset1">
			<data element_type="i64" offset="5696" shape="1" size="8"/>
			<output>
				<port id="0" precision="I64">
					<dim>1</dim>
				</port>
			</output>
		</layer>
		<layer id="121" name="Resize_0/StridedSlice_scales_input_port_2/value1763780611" type="Const" version="opset1">
			<data element_type="i64" offset="5712" shape="1" size="8"/>
			<output>
				<port id="0" precision="I64">
					<dim>1</dim>
				</port>
			</output>
		</layer>
		<layer id="122" name="Resize_0/StridedSlice_scales_input_port_3/value1763980464" type="Const" version="opset1">
			<data element_type="i64" offset="5704" shape="1" size="8"/>
			<output>
				<port id="0" precision="I64">
					<dim>1</dim>
				</port>
			</output>
		</layer>
		<layer id="123" name="Resize_0/StridedSlice_scales" type="StridedSlice" version="opset1">
			<data begin_mask="0" ellipsis_mask="0" end_mask="0" new_axis_mask="0" shrink_axis_mask="0"/>
			<input>
				<port id="0" precision="FP32">
					<dim>4</dim>
				</port>
				<port id="1" precision="I64">
					<dim>1</dim>
				</port>
				<port id="2" precision="I64">
					<dim>1</dim>
				</port>
				<port id="3" precision="I64">
					<dim>1</dim>
				</port>
			</input>
			<output>
				<port id="4" precision="FP32">
					<dim>2</dim>
				</port>
			</output>
		</layer>
		<layer id="124" name="Resize_0/axis1764282699" type="Const" version="opset1">
			<data element_type="i64" offset="5724" shape="2" size="16"/>
			<output>
				<port id="0" precision="I64">
					<dim>2</dim>
				</port>
			</output>
		</layer>
		<layer id="125" name="Resize_0" type="Interpolate" version="opset4">
			<data antialias="false" coordinate_transformation_mode="half_pixel" cube_coeff="-0.75" mode="linear_onnx" nearest_mode="round_prefer_floor" pads_begin="0, 0, 0, 0" pads_end="0, 0, 0, 0" shape_calculation_mode="sizes"/>
			<input>
				<port id="0" precision="FP32">
					<dim>1</dim>
					<dim>8</dim>
					<dim>8</dim>
					<dim>8</dim>
				</port>
				<port id="1" precision="I64">
					<dim>2</dim>
				</port>
				<port id="2" precision="FP32">
					<dim>2</dim>
				</port>
				<port id="3" precision="I64">
					<dim>2</dim>
				</port>
			</input>
			<output>
				<port id="4" names="bilinear_interp_v2_0.tmp_0" precision="FP32">
					<dim>1</dim>
					<dim>8</dim>
					<dim>15</dim>
					<dim>15</dim>
				</port>
			</output>
		</layer>
		<layer id="126" name="Concat_2" type="Concat" version="opset1">
			<data axis="1"/>
			<input>
				<port id="0" precision="FP32">
					<dim>1</dim>
					<dim>8</dim>
					<dim>15</dim>
					<dim>15</dim>
				</port>
				<port id="1" precision="FP32">
					<dim>1</dim>
					<dim>8</dim>
					<dim>15</dim>
					<dim>15</dim>
				</port>
			</input>
			<output>
				<port id="2" names="concat_1.tmp_0" precision="FP32">
					<dim>1</dim>
					<dim>16</dim>
					<dim>15</dim>
					<dim>15</dim>
				</port>
			</output>
		</layer>
		<layer id="127" name="BatchNormalization_18/mean/Fused_Mul__copy" type="Const" version="opset1">
			<data element_type="f32" offset="5740" shape="16, 1, 1, 3, 3" size="576"/>
			<output>
				<port id="0" names="conv2d_18.w_0" precision="FP32">
					<dim>16</dim>
					<dim>1</dim>
					<dim>1</dim>
					<dim>3</dim>
					<dim>3</dim>
				</port>
			</output>
		</layer>
		<layer id="128" name="Conv_18" type="GroupConvolution" version="opset1">
			<data auto_pad="explicit" dilations="1, 1" pads_begin="1, 1" pads_end="1, 1" strides="1, 1"/>
			<input>
				<port id="0" precision="FP32">
					<dim>1</dim>
					<dim>16</dim>
					<dim>15</dim>
					<dim>15</dim>
				</port>
				<port id="1" precision="FP32">
					<dim>16</dim>
					<dim>1</dim>
					<dim>1</dim>
					<dim>3</dim>
					<dim>3</dim>
				</port>
			</input>
			<output>
				<port id="2" precision="FP32">
					<dim>1</dim>
					<dim>16</dim>
					<dim>15</dim>
					<dim>15</dim>
				</port>
			</output>
		</layer>
		<layer id="129" name="data_add_428074281282015" type="Const" version="opset1">
			<data element_type="f32" offset="6316" shape="1, 16, 1, 1" size="64"/>
			<output>
				<port id="0" precision="FP32">
					<dim>1</dim>
					<dim>16</dim>
					<dim>1</dim>
					<dim>1</dim>
				</port>
			</output>
		</layer>
		<layer id="130" name="Add_18/Fused_Add_" type="Add" version="opset1">
			<data auto_broadcast="numpy"/>
			<input>
				<port id="0" precision="FP32">
					<dim>1</dim>
					<dim>16</dim>
					<dim>15</dim>
					<dim>15</dim>
				</port>
				<port id="1" precision="FP32">
					<dim>1</dim>
					<dim>16</dim>
					<dim>1</dim>
					<dim>1</dim>
				</port>
			</input>
			<output>
				<port id="2" names="batch_norm_18.tmp_2" precision="FP32">
					<dim>1</dim>
					<dim>16</dim>
					<dim>15</dim>
					<dim>15</dim>
				</port>
			</output>
		</layer>
		<layer id="131" name="Relu_18" type="ReLU" version="opset1">
			<input>
				<port id="0" precision="FP32">
					<dim>1</dim>
					<dim>16</dim>
					<dim>15</dim>
					<dim>15</dim>
				</port>
			</input>
			<output>
				<port id="1" names="relu_18.tmp_0" precision="FP32">
					<dim>1</dim>
					<dim>16</dim>
					<dim>15</dim>
					<dim>15</dim>
				</port>
			</output>
		</layer>
		<layer id="132" name="BatchNormalization_19/mean/Fused_Mul__copy" type="Const" version="opset1">
			<data element_type="f32" offset="6380" shape="8, 16, 1, 1" size="512"/>
			<output>
				<port id="0" names="conv2d_19.w_0" precision="FP32">
					<dim>8</dim>
					<dim>16</dim>
					<dim>1</dim>
					<dim>1</dim>
				</port>
			</output>
		</layer>
		<layer id="133" name="Conv_19" type="Convolution" version="opset1">
			<data auto_pad="explicit" dilations="1, 1" pads_begin="0, 0" pads_end="0, 0" strides="1, 1"/>
			<input>
				<port id="0" precision="FP32">
					<dim>1</dim>
					<dim>16</dim>
					<dim>15</dim>
					<dim>15</dim>
				</port>
				<port id="1" precision="FP32">
					<dim>8</dim>
					<dim>16</dim>
					<dim>1</dim>
					<dim>1</dim>
				</port>
			</input>
			<output>
				<port id="2" precision="FP32">
					<dim>1</dim>
					<dim>8</dim>
					<dim>15</dim>
					<dim>15</dim>
				</port>
			</output>
		</layer>
		<layer id="134" name="data_add_428154282082408" type="Const" version="opset1">
			<data element_type="f32" offset="6892" shape="1, 8, 1, 1" size="32"/>
			<output>
				<port id="0" precision="FP32">
					<dim>1</dim>
					<dim>8</dim>
					<dim>1</dim>
					<dim>1</dim>
				</port>
			</output>
		</layer>
		<layer id="135" name="Add_19/Fused_Add_" type="Add" version="opset1">
			<data auto_broadcast="numpy"/>
			<input>
				<port id="0" precision="FP32">
					<dim>1</dim>
					<dim>8</dim>
					<dim>15</dim>
					<dim>15</dim>
				</port>
				<port id="1" precision="FP32">
					<dim>1</dim>
					<dim>8</dim>
					<dim>1</dim>
					<dim>1</dim>
				</port>
			</input>
			<output>
				<port id="2" names="batch_norm_19.tmp_2" precision="FP32">
					<dim>1</dim>
					<dim>8</dim>
					<dim>15</dim>
					<dim>15</dim>
				</port>
			</output>
		</layer>
		<layer id="136" name="Relu_19" type="ReLU" version="opset1">
			<input>
				<port id="0" precision="FP32">
					<dim>1</dim>
					<dim>8</dim>
					<dim>15</dim>
					<dim>15</dim>
				</port>
			</input>
			<output>
				<port id="1" names="relu_19.tmp_0" precision="FP32">
					<dim>1</dim>
					<dim>8</dim>
					<dim>15</dim>
					<dim>15</dim>
				</port>
			</output>
		</layer>
		<layer id="137" name="Shape_3" type="ShapeOf" version="opset3">
			<data output_type="i64"/>
			<input>
				<port id="0" precision="FP32">
					<dim>1</dim>
					<dim>8</dim>
					<dim>15</dim>
					<dim>15</dim>
				</port>
			</input>
			<output>
				<port id="1" names="Shape_3" precision="I64">
					<dim>4</dim>
				</port>
			</output>
		</layer>
		<layer id="138" name="Slice_3/Concat2452681400" type="Const" version="opset1">
			<data element_type="i64" offset="5688" shape="1" size="8"/>
			<output>
				<port id="0" precision="I64">
					<dim>1</dim>
				</port>
			</output>
		</layer>
		<layer id="139" name="Slice_3/Concat245162452780410" type="Const" version="opset1">
			<data element_type="i64" offset="5696" shape="1" size="8"/>
			<output>
				<port id="0" precision="I64">
					<dim>1</dim>
				</port>
			</output>
		</layer>
		<layer id="140" name="Slice_3/Strides2452882531" type="Const" version="opset1">
			<data element_type="i64" offset="5704" shape="1" size="8"/>
			<output>
				<port id="0" precision="I64">
					<dim>1</dim>
				</port>
			</output>
		</layer>
		<layer id="141" name="Slice_3" type="StridedSlice" version="opset1">
			<data begin_mask="0" ellipsis_mask="0" end_mask="0" new_axis_mask="0" shrink_axis_mask="0"/>
			<input>
				<port id="0" precision="I64">
					<dim>4</dim>
				</port>
				<port id="1" precision="I64">
					<dim>1</dim>
				</port>
				<port id="2" precision="I64">
					<dim>1</dim>
				</port>
				<port id="3" precision="I64">
					<dim>1</dim>
				</port>
			</input>
			<output>
				<port id="4" names="Slice_3" precision="I64">
					<dim>2</dim>
				</port>
			</output>
		</layer>
		<layer id="142" name="Shape_2" type="ShapeOf" version="opset3">
			<data output_type="i64"/>
			<input>
				<port id="0" precision="FP32">
					<dim>1</dim>
					<dim>8</dim>
					<dim>30</dim>
					<dim>30</dim>
				</port>
			</input>
			<output>
				<port id="1" names="Shape_2" precision="I64">
					<dim>4</dim>
				</port>
			</output>
		</layer>
		<layer id="143" name="Cast_2" type="Convert" version="opset1">
			<data destination_type="i32"/>
			<input>
				<port id="0" precision="I64">
					<dim>4</dim>
				</port>
			</input>
			<output>
				<port id="1" names="shape_1.tmp_0" precision="I32">
					<dim>4</dim>
				</port>
			</output>
		</layer>
		<layer id="144" name="Slice_2/Concat2449080692" type="Const" version="opset1">
			<data element_type="i64" offset="5696" shape="1" size="8"/>
			<output>
				<port id="0" precision="I64">
					<dim>1</dim>
				</port>
			</output>
		</layer>
		<layer id="145" name="Slice_2/Concat244802449181769" type="Const" version="opset1">
			<data element_type="i64" offset="5712" shape="1" size="8"/>
			<output>
				<port id="0" precision="I64">
					<dim>1</dim>
				</port>
			</output>
		</layer>
		<layer id="146" name="Slice_2/Strides2449280983" type="Const" version="opset1">
			<data element_type="i64" offset="5704" shape="1" size="8"/>
			<output>
				<port id="0" precision="I64">
					<dim>1</dim>
				</port>
			</output>
		</layer>
		<layer id="147" name="Slice_2" type="StridedSlice" version="opset1">
			<data begin_mask="0" ellipsis_mask="0" end_mask="0" new_axis_mask="0" shrink_axis_mask="0"/>
			<input>
				<port id="0" precision="I32">
					<dim>4</dim>
				</port>
				<port id="1" precision="I64">
					<dim>1</dim>
				</port>
				<port id="2" precision="I64">
					<dim>1</dim>
				</port>
				<port id="3" precision="I64">
					<dim>1</dim>
				</port>
			</input>
			<output>
				<port id="4" names="shape_1.tmp_0_slice_0" precision="I32">
					<dim>2</dim>
				</port>
			</output>
		</layer>
		<layer id="148" name="Cast_3" type="Convert" version="opset1">
			<data destination_type="i64"/>
			<input>
				<port id="0" precision="I32">
					<dim>2</dim>
				</port>
			</input>
			<output>
				<port id="1" names="Cast_3" precision="I64">
					<dim>2</dim>
				</port>
			</output>
		</layer>
		<layer id="149" name="Concat_3" type="Concat" version="opset1">
			<data axis="0"/>
			<input>
				<port id="0" precision="I64">
					<dim>2</dim>
				</port>
				<port id="1" precision="I64">
					<dim>2</dim>
				</port>
			</input>
			<output>
				<port id="2" names="Concat_3" precision="I64">
					<dim>4</dim>
				</port>
			</output>
		</layer>
		<layer id="150" name="Resize_1/StridedSlice_sizes_input_port_1/value1766081076" type="Const" version="opset1">
			<data element_type="i64" offset="5696" shape="1" size="8"/>
			<output>
				<port id="0" precision="I64">
					<dim>1</dim>
				</port>
			</output>
		</layer>
		<layer id="151" name="Resize_1/StridedSlice_sizes_input_port_2/value1766281547" type="Const" version="opset1">
			<data element_type="i64" offset="5712" shape="1" size="8"/>
			<output>
				<port id="0" precision="I64">
					<dim>1</dim>
				</port>
			</output>
		</layer>
		<layer id="152" name="Resize_1/StridedSlice_sizes_input_port_3/value1766482138" type="Const" version="opset1">
			<data element_type="i64" offset="5704" shape="1" size="8"/>
			<output>
				<port id="0" precision="I64">
					<dim>1</dim>
				</port>
			</output>
		</layer>
		<layer id="153" name="Resize_1/StridedSlice_sizes" type="StridedSlice" version="opset1">
			<data begin_mask="0" ellipsis_mask="0" end_mask="0" new_axis_mask="0" shrink_axis_mask="0"/>
			<input>
				<port id="0" precision="I64">
					<dim>4</dim>
				</port>
				<port id="1" precision="I64">
					<dim>1</dim>
				</port>
				<port id="2" precision="I64">
					<dim>1</dim>
				</port>
				<port id="3" precision="I64">
					<dim>1</dim>
				</port>
			</input>
			<output>
				<port id="4" precision="I64">
					<dim>2</dim>
				</port>
			</output>
		</layer>
		<layer id="154" name="17680" type="Convert" version="opset1">
			<data destination_type="f32"/>
			<input>
				<port id="0" precision="I64">
					<dim>4</dim>
				</port>
			</input>
			<output>
				<port id="1" precision="FP32">
					<dim>4</dim>
				</port>
			</output>
		</layer>
		<layer id="155" name="Resize_1/ShapeOf" type="ShapeOf" version="opset3">
			<data output_type="i64"/>
			<input>
				<port id="0" precision="FP32">
					<dim>1</dim>
					<dim>8</dim>
					<dim>15</dim>
					<dim>15</dim>
				</port>
			</input>
			<output>
				<port id="1" precision="I64">
					<dim>4</dim>
				</port>
			</output>
		</layer>
		<layer id="156" name="17679" type="Convert" version="opset1">
			<data destination_type="f32"/>
			<input>
				<port id="0" precision="I64">
					<dim>4</dim>
				</port>
			</input>
			<output>
				<port id="1" precision="FP32">
					<dim>4</dim>
				</port>
			</output>
		</layer>
		<layer id="157" name="Resize_1/Div" type="Divide" version="opset1">
			<data auto_broadcast="numpy" m_pythondiv="true"/>
			<input>
				<port id="0" precision="FP32">
					<dim>4</dim>
				</port>
				<port id="1" precision="FP32">
					<dim>4</dim>
				</port>
			</input>
			<output>
				<port id="2" precision="FP32">
					<dim>4</dim>
				</port>
			</output>
		</layer>
		<layer id="158" name="Resize_1/Add_input_port_1/value1767881595" type="Const" version="opset1">
			<data element_type="f32" offset="5720" shape="1" size="4"/>
			<output>
				<port id="0" precision="FP32">
					<dim>1</dim>
				</port>
			</output>
		</layer>
		<layer id="159" name="Resize_1/Add" type="Add" version="opset1">
			<data auto_broadcast="numpy"/>
			<input>
				<port id="0" precision="FP32">
					<dim>4</dim>
				</port>
				<port id="1" precision="FP32">
					<dim>1</dim>
				</port>
			</input>
			<output>
				<port id="2" precision="FP32">
					<dim>4</dim>
				</port>
			</output>
		</layer>
		<layer id="160" name="Resize_1/StridedSlice_scales_input_port_1/value1766780830" type="Const" version="opset1">
			<data element_type="i64" offset="5696" shape="1" size="8"/>
			<output>
				<port id="0" precision="I64">
					<dim>1</dim>
				</port>
			</output>
		</layer>
		<layer id="161" name="Resize_1/StridedSlice_scales_input_port_2/value1766982195" type="Const" version="opset1">
			<data element_type="i64" offset="5712" shape="1" size="8"/>
			<output>
				<port id="0" precision="I64">
					<dim>1</dim>
				</port>
			</output>
		</layer>
		<layer id="162" name="Resize_1/StridedSlice_scales_input_port_3/value1767181139" type="Const" version="opset1">
			<data element_type="i64" offset="5704" shape="1" size="8"/>
			<output>
				<port id="0" precision="I64">
					<dim>1</dim>
				</port>
			</output>
		</layer>
		<layer id="163" name="Resize_1/StridedSlice_scales" type="StridedSlice" version="opset1">
			<data begin_mask="0" ellipsis_mask="0" end_mask="0" new_axis_mask="0" shrink_axis_mask="0"/>
			<input>
				<port id="0" precision="FP32">
					<dim>4</dim>
				</port>
				<port id="1" precision="I64">
					<dim>1</dim>
				</port>
				<port id="2" precision="I64">
					<dim>1</dim>
				</port>
				<port id="3" precision="I64">
					<dim>1</dim>
				</port>
			</input>
			<output>
				<port id="4" precision="FP32">
					<dim>2</dim>
				</port>
			</output>
		</layer>
		<layer id="164" name="Resize_1/axis1767482801" type="Const" version="opset1">
			<data element_type="i64" offset="5724" shape="2" size="16"/>
			<output>
				<port id="0" precision="I64">
					<dim>2</dim>
				</port>
			</output>
		</layer>
		<layer id="165" name="Resize_1" type="Interpolate" version="opset4">
			<data antialias="false" coordinate_transformation_mode="half_pixel" cube_coeff="-0.75" mode="linear_onnx" nearest_mode="round_prefer_floor" pads_begin="0, 0, 0, 0" pads_end="0, 0, 0, 0" shape_calculation_mode="sizes"/>
			<input>
				<port id="0" precision="FP32">
					<dim>1</dim>
					<dim>8</dim>
					<dim>15</dim>
					<dim>15</dim>
				</port>
				<port id="1" precision="I64">
					<dim>2</dim>
				</port>
				<port id="2" precision="FP32">
					<dim>2</dim>
				</port>
				<port id="3" precision="I64">
					<dim>2</dim>
				</port>
			</input>
			<output>
				<port id="4" names="bilinear_interp_v2_1.tmp_0" precision="FP32">
					<dim>1</dim>
					<dim>8</dim>
					<dim>30</dim>
					<dim>30</dim>
				</port>
			</output>
		</layer>
		<layer id="166" name="Concat_4" type="Concat" version="opset1">
			<data axis="1"/>
			<input>
				<port id="0" precision="FP32">
					<dim>1</dim>
					<dim>8</dim>
					<dim>30</dim>
					<dim>30</dim>
				</port>
				<port id="1" precision="FP32">
					<dim>1</dim>
					<dim>8</dim>
					<dim>30</dim>
					<dim>30</dim>
				</port>
			</input>
			<output>
				<port id="2" names="concat_2.tmp_0" precision="FP32">
					<dim>1</dim>
					<dim>16</dim>
					<dim>30</dim>
					<dim>30</dim>
				</port>
			</output>
		</layer>
		<layer id="167" name="BatchNormalization_20/mean/Fused_Mul__copy" type="Const" version="opset1">
			<data element_type="f32" offset="6924" shape="16, 1, 1, 3, 3" size="576"/>
			<output>
				<port id="0" names="conv2d_20.w_0" precision="FP32">
					<dim>16</dim>
					<dim>1</dim>
					<dim>1</dim>
					<dim>3</dim>
					<dim>3</dim>
				</port>
			</output>
		</layer>
		<layer id="168" name="Conv_20" type="GroupConvolution" version="opset1">
			<data auto_pad="explicit" dilations="1, 1" pads_begin="1, 1" pads_end="1, 1" strides="1, 1"/>
			<input>
				<port id="0" precision="FP32">
					<dim>1</dim>
					<dim>16</dim>
					<dim>30</dim>
					<dim>30</dim>
				</port>
				<port id="1" precision="FP32">
					<dim>16</dim>
					<dim>1</dim>
					<dim>1</dim>
					<dim>3</dim>
					<dim>3</dim>
				</port>
			</input>
			<output>
				<port id="2" precision="FP32">
					<dim>1</dim>
					<dim>16</dim>
					<dim>30</dim>
					<dim>30</dim>
				</port>
			</output>
		</layer>
		<layer id="169" name="data_add_428234282882546" type="Const" version="opset1">
			<data element_type="f32" offset="7500" shape="1, 16, 1, 1" size="64"/>
			<output>
				<port id="0" precision="FP32">
					<dim>1</dim>
					<dim>16</dim>
					<dim>1</dim>
					<dim>1</dim>
				</port>
			</output>
		</layer>
		<layer id="170" name="Add_20/Fused_Add_" type="Add" version="opset1">
			<data auto_broadcast="numpy"/>
			<input>
				<port id="0" precision="FP32">
					<dim>1</dim>
					<dim>16</dim>
					<dim>30</dim>
					<dim>30</dim>
				</port>
				<port id="1" precision="FP32">
					<dim>1</dim>
					<dim>16</dim>
					<dim>1</dim>
					<dim>1</dim>
				</port>
			</input>
			<output>
				<port id="2" names="batch_norm_20.tmp_2" precision="FP32">
					<dim>1</dim>
					<dim>16</dim>
					<dim>30</dim>
					<dim>30</dim>
				</port>
			</output>
		</layer>
		<layer id="171" name="Relu_20" type="ReLU" version="opset1">
			<input>
				<port id="0" precision="FP32">
					<dim>1</dim>
					<dim>16</dim>
					<dim>30</dim>
					<dim>30</dim>
				</port>
			</input>
			<output>
				<port id="1" names="relu_20.tmp_0" precision="FP32">
					<dim>1</dim>
					<dim>16</dim>
					<dim>30</dim>
					<dim>30</dim>
				</port>
			</output>
		</layer>
		<layer id="172" name="BatchNormalization_21/mean/Fused_Mul__copy" type="Const" version="opset1">
			<data element_type="f32" offset="7564" shape="8, 16, 1, 1" size="512"/>
			<output>
				<port id="0" names="conv2d_21.w_0" precision="FP32">
					<dim>8</dim>
					<dim>16</dim>
					<dim>1</dim>
					<dim>1</dim>
				</port>
			</output>
		</layer>
		<layer id="173" name="Conv_21" type="Convolution" version="opset1">
			<data auto_pad="explicit" dilations="1, 1" pads_begin="0, 0" pads_end="0, 0" strides="1, 1"/>
			<input>
				<port id="0" precision="FP32">
					<dim>1</dim>
					<dim>16</dim>
					<dim>30</dim>
					<dim>30</dim>
				</port>
				<port id="1" precision="FP32">
					<dim>8</dim>
					<dim>16</dim>
					<dim>1</dim>
					<dim>1</dim>
				</port>
			</input>
			<output>
				<port id="2" precision="FP32">
					<dim>1</dim>
					<dim>8</dim>
					<dim>30</dim>
					<dim>30</dim>
				</port>
			</output>
		</layer>
		<layer id="174" name="data_add_428314283682516" type="Const" version="opset1">
			<data element_type="f32" offset="8076" shape="1, 8, 1, 1" size="32"/>
			<output>
				<port id="0" precision="FP32">
					<dim>1</dim>
					<dim>8</dim>
					<dim>1</dim>
					<dim>1</dim>
				</port>
			</output>
		</layer>
		<layer id="175" name="Add_21/Fused_Add_" type="Add" version="opset1">
			<data auto_broadcast="numpy"/>
			<input>
				<port id="0" precision="FP32">
					<dim>1</dim>
					<dim>8</dim>
					<dim>30</dim>
					<dim>30</dim>
				</port>
				<port id="1" precision="FP32">
					<dim>1</dim>
					<dim>8</dim>
					<dim>1</dim>
					<dim>1</dim>
				</port>
			</input>
			<output>
				<port id="2" names="batch_norm_21.tmp_2" precision="FP32">
					<dim>1</dim>
					<dim>8</dim>
					<dim>30</dim>
					<dim>30</dim>
				</port>
			</output>
		</layer>
		<layer id="176" name="Relu_21" type="ReLU" version="opset1">
			<input>
				<port id="0" precision="FP32">
					<dim>1</dim>
					<dim>8</dim>
					<dim>30</dim>
					<dim>30</dim>
				</port>
			</input>
			<output>
				<port id="1" names="relu_21.tmp_0" precision="FP32">
					<dim>1</dim>
					<dim>8</dim>
					<dim>30</dim>
					<dim>30</dim>
				</port>
			</output>
		</layer>
		<layer id="177" name="Shape_5" type="ShapeOf" version="opset3">
			<data output_type="i64"/>
			<input>
				<port id="0" precision="FP32">
					<dim>1</dim>
					<dim>8</dim>
					<dim>30</dim>
					<dim>30</dim>
				</port>
			</input>
			<output>
				<port id="1" names="Shape_5" precision="I64">
					<dim>4</dim>
				</port>
			</output>
		</layer>
		<layer id="178" name="Slice_5/Concat2459882090" type="Const" version="opset1">
			<data element_type="i64" offset="5688" shape="1" size="8"/>
			<output>
				<port id="0" precision="I64">
					<dim>1</dim>
				</port>
			</output>
		</layer>
		<layer id="179" name="Slice_5/Concat245882459982594" type="Const" version="opset1">
			<data element_type="i64" offset="5696" shape="1" size="8"/>
			<output>
				<port id="0" precision="I64">
					<dim>1</dim>
				</port>
			</output>
		</layer>
		<layer id="180" name="Slice_5/Strides2460081310" type="Const" version="opset1">
			<data element_type="i64" offset="5704" shape="1" size="8"/>
			<output>
				<port id="0" precision="I64">
					<dim>1</dim>
				</port>
			</output>
		</layer>
		<layer id="181" name="Slice_5" type="StridedSlice" version="opset1">
			<data begin_mask="0" ellipsis_mask="0" end_mask="0" new_axis_mask="0" shrink_axis_mask="0"/>
			<input>
				<port id="0" precision="I64">
					<dim>4</dim>
				</port>
				<port id="1" precision="I64">
					<dim>1</dim>
				</port>
				<port id="2" precision="I64">
					<dim>1</dim>
				</port>
				<port id="3" precision="I64">
					<dim>1</dim>
				</port>
			</input>
			<output>
				<port id="4" names="Slice_5" precision="I64">
					<dim>2</dim>
				</port>
			</output>
		</layer>
		<layer id="182" name="Shape_4" type="ShapeOf" version="opset3">
			<data output_type="i64"/>
			<input>
				<port id="0" precision="FP32">
					<dim>1</dim>
					<dim>8</dim>
					<dim>60</dim>
					<dim>60</dim>
				</port>
			</input>
			<output>
				<port id="1" names="Shape_4" precision="I64">
					<dim>4</dim>
				</port>
			</output>
		</layer>
		<layer id="183" name="Cast_4" type="Convert" version="opset1">
			<data destination_type="i32"/>
			<input>
				<port id="0" precision="I64">
					<dim>4</dim>
				</port>
			</input>
			<output>
				<port id="1" names="shape_2.tmp_0" precision="I32">
					<dim>4</dim>
				</port>
			</output>
		</layer>
		<layer id="184" name="Slice_4/Concat2456280344" type="Const" version="opset1">
			<data element_type="i64" offset="5696" shape="1" size="8"/>
			<output>
				<port id="0" precision="I64">
					<dim>1</dim>
				</port>
			</output>
		</layer>
		<layer id="185" name="Slice_4/Concat245522456380365" type="Const" version="opset1">
			<data element_type="i64" offset="5712" shape="1" size="8"/>
			<output>
				<port id="0" precision="I64">
					<dim>1</dim>
				</port>
			</output>
		</layer>
		<layer id="186" name="Slice_4/Strides2456481727" type="Const" version="opset1">
			<data element_type="i64" offset="5704" shape="1" size="8"/>
			<output>
				<port id="0" precision="I64">
					<dim>1</dim>
				</port>
			</output>
		</layer>
		<layer id="187" name="Slice_4" type="StridedSlice" version="opset1">
			<data begin_mask="0" ellipsis_mask="0" end_mask="0" new_axis_mask="0" shrink_axis_mask="0"/>
			<input>
				<port id="0" precision="I32">
					<dim>4</dim>
				</port>
				<port id="1" precision="I64">
					<dim>1</dim>
				</port>
				<port id="2" precision="I64">
					<dim>1</dim>
				</port>
				<port id="3" precision="I64">
					<dim>1</dim>
				</port>
			</input>
			<output>
				<port id="4" names="shape_2.tmp_0_slice_0" precision="I32">
					<dim>2</dim>
				</port>
			</output>
		</layer>
		<layer id="188" name="Cast_5" type="Convert" version="opset1">
			<data destination_type="i64"/>
			<input>
				<port id="0" precision="I32">
					<dim>2</dim>
				</port>
			</input>
			<output>
				<port id="1" names="Cast_5" precision="I64">
					<dim>2</dim>
				</port>
			</output>
		</layer>
		<layer id="189" name="Concat_5" type="Concat" version="opset1">
			<data axis="0"/>
			<input>
				<port id="0" precision="I64">
					<dim>2</dim>
				</port>
				<port id="1" precision="I64">
					<dim>2</dim>
				</port>
			</input>
			<output>
				<port id="2" names="Concat_5" precision="I64">
					<dim>4</dim>
				</port>
			</output>
		</layer>
		<layer id="190" name="Resize_2/StridedSlice_sizes_input_port_1/value1769280833" type="Const" version="opset1">
			<data element_type="i64" offset="5696" shape="1" size="8"/>
			<output>
				<port id="0" precision="I64">
					<dim>1</dim>
				</port>
			</output>
		</layer>
		<layer id="191" name="Resize_2/StridedSlice_sizes_input_port_2/value1769482636" type="Const" version="opset1">
			<data element_type="i64" offset="5712" shape="1" size="8"/>
			<output>
				<port id="0" precision="I64">
					<dim>1</dim>
				</port>
			</output>
		</layer>
		<layer id="192" name="Resize_2/StridedSlice_sizes_input_port_3/value1769682294" type="Const" version="opset1">
			<data element_type="i64" offset="5704" shape="1" size="8"/>
			<output>
				<port id="0" precision="I64">
					<dim>1</dim>
				</port>
			</output>
		</layer>
		<layer id="193" name="Resize_2/StridedSlice_sizes" type="StridedSlice" version="opset1">
			<data begin_mask="0" ellipsis_mask="0" end_mask="0" new_axis_mask="0" shrink_axis_mask="0"/>
			<input>
				<port id="0" precision="I64">
					<dim>4</dim>
				</port>
				<port id="1" precision="I64">
					<dim>1</dim>
				</port>
				<port id="2" precision="I64">
					<dim>1</dim>
				</port>
				<port id="3" precision="I64">
					<dim>1</dim>
				</port>
			</input>
			<output>
				<port id="4" precision="I64">
					<dim>2</dim>
				</port>
			</output>
		</layer>
		<layer id="194" name="17712" type="Convert" version="opset1">
			<data destination_type="f32"/>
			<input>
				<port id="0" precision="I64">
					<dim>4</dim>
				</port>
			</input>
			<output>
				<port id="1" precision="FP32">
					<dim>4</dim>
				</port>
			</output>
		</layer>
		<layer id="195" name="Resize_2/ShapeOf" type="ShapeOf" version="opset3">
			<data output_type="i64"/>
			<input>
				<port id="0" precision="FP32">
					<dim>1</dim>
					<dim>8</dim>
					<dim>30</dim>
					<dim>30</dim>
				</port>
			</input>
			<output>
				<port id="1" precision="I64">
					<dim>4</dim>
				</port>
			</output>
		</layer>
		<layer id="196" name="17711" type="Convert" version="opset1">
			<data destination_type="f32"/>
			<input>
				<port id="0" precision="I64">
					<dim>4</dim>
				</port>
			</input>
			<output>
				<port id="1" precision="FP32">
					<dim>4</dim>
				</port>
			</output>
		</layer>
		<layer id="197" name="Resize_2/Div" type="Divide" version="opset1">
			<data auto_broadcast="numpy" m_pythondiv="true"/>
			<input>
				<port id="0" precision="FP32">
					<dim>4</dim>
				</port>
				<port id="1" precision="FP32">
					<dim>4</dim>
				</port>
			</input>
			<output>
				<port id="2" precision="FP32">
					<dim>4</dim>
				</port>
			</output>
		</layer>
		<layer id="198" name="Resize_2/Add_input_port_1/value1771081757" type="Const" version="opset1">
			<data element_type="f32" offset="5720" shape="1" size="4"/>
			<output>
				<port id="0" precision="FP32">
					<dim>1</dim>
				</port>
			</output>
		</layer>
		<layer id="199" name="Resize_2/Add" type="Add" version="opset1">
			<data auto_broadcast="numpy"/>
			<input>
				<port id="0" precision="FP32">
					<dim>4</dim>
				</port>
				<port id="1" precision="FP32">
					<dim>1</dim>
				</port>
			</input>
			<output>
				<port id="2" precision="FP32">
					<dim>4</dim>
				</port>
			</output>
		</layer>
		<layer id="200" name="Resize_2/StridedSlice_scales_input_port_1/value1769980620" type="Const" version="opset1">
			<data element_type="i64" offset="5696" shape="1" size="8"/>
			<output>
				<port id="0" precision="I64">
					<dim>1</dim>
				</port>
			</output>
		</layer>
		<layer id="201" name="Resize_2/StridedSlice_scales_input_port_2/value1770182078" type="Const" version="opset1">
			<data element_type="i64" offset="5712" shape="1" size="8"/>
			<output>
				<port id="0" precision="I64">
					<dim>1</dim>
				</port>
			</output>
		</layer>
		<layer id="202" name="Resize_2/StridedSlice_scales_input_port_3/value1770380695" type="Const" version="opset1">
			<data element_type="i64" offset="5704" shape="1" size="8"/>
			<output>
				<port id="0" precision="I64">
					<dim>1</dim>
				</port>
			</output>
		</layer>
		<layer id="203" name="Resize_2/StridedSlice_scales" type="StridedSlice" version="opset1">
			<data begin_mask="0" ellipsis_mask="0" end_mask="0" new_axis_mask="0" shrink_axis_mask="0"/>
			<input>
				<port id="0" precision="FP32">
					<dim>4</dim>
				</port>
				<port id="1" precision="I64">
					<dim>1</dim>
				</port>
				<port id="2" precision="I64">
					<dim>1</dim>
				</port>
				<port id="3" precision="I64">
					<dim>1</dim>
				</port>
			</input>
			<output>
				<port id="4" precision="FP32">
					<dim>2</dim>
				</port>
			</output>
		</layer>
		<layer id="204" name="Resize_2/axis1770681937" type="Const" version="opset1">
			<data element_type="i64" offset="5724" shape="2" size="16"/>
			<output>
				<port id="0" precision="I64">
					<dim>2</dim>
				</port>
			</output>
		</layer>
		<layer id="205" name="Resize_2" type="Interpolate" version="opset4">
			<data antialias="false" coordinate_transformation_mode="half_pixel" cube_coeff="-0.75" mode="linear_onnx" nearest_mode="round_prefer_floor" pads_begin="0, 0, 0, 0" pads_end="0, 0, 0, 0" shape_calculation_mode="sizes"/>
			<input>
				<port id="0" precision="FP32">
					<dim>1</dim>
					<dim>8</dim>
					<dim>30</dim>
					<dim>30</dim>
				</port>
				<port id="1" precision="I64">
					<dim>2</dim>
				</port>
				<port id="2" precision="FP32">
					<dim>2</dim>
				</port>
				<port id="3" precision="I64">
					<dim>2</dim>
				</port>
			</input>
			<output>
				<port id="4" names="bilinear_interp_v2_2.tmp_0" precision="FP32">
					<dim>1</dim>
					<dim>8</dim>
					<dim>60</dim>
					<dim>60</dim>
				</port>
			</output>
		</layer>
		<layer id="206" name="Concat_6" type="Concat" version="opset1">
			<data axis="1"/>
			<input>
				<port id="0" precision="FP32">
					<dim>1</dim>
					<dim>8</dim>
					<dim>60</dim>
					<dim>60</dim>
				</port>
				<port id="1" precision="FP32">
					<dim>1</dim>
					<dim>8</dim>
					<dim>60</dim>
					<dim>60</dim>
				</port>
			</input>
			<output>
				<port id="2" names="concat_3.tmp_0" precision="FP32">
					<dim>1</dim>
					<dim>16</dim>
					<dim>60</dim>
					<dim>60</dim>
				</port>
			</output>
		</layer>
		<layer id="207" name="BatchNormalization_22/mean/Fused_Mul__copy" type="Const" version="opset1">
			<data element_type="f32" offset="8108" shape="16, 1, 1, 3, 3" size="576"/>
			<output>
				<port id="0" names="conv2d_22.w_0" precision="FP32">
					<dim>16</dim>
					<dim>1</dim>
					<dim>1</dim>
					<dim>3</dim>
					<dim>3</dim>
				</port>
			</output>
		</layer>
		<layer id="208" name="Conv_22" type="GroupConvolution" version="opset1">
			<data auto_pad="explicit" dilations="1, 1" pads_begin="1, 1" pads_end="1, 1" strides="1, 1"/>
			<input>
				<port id="0" precision="FP32">
					<dim>1</dim>
					<dim>16</dim>
					<dim>60</dim>
					<dim>60</dim>
				</port>
				<port id="1" precision="FP32">
					<dim>16</dim>
					<dim>1</dim>
					<dim>1</dim>
					<dim>3</dim>
					<dim>3</dim>
				</port>
			</input>
			<output>
				<port id="2" precision="FP32">
					<dim>1</dim>
					<dim>16</dim>
					<dim>60</dim>
					<dim>60</dim>
				</port>
			</output>
		</layer>
		<layer id="209" name="data_add_428394284481277" type="Const" version="opset1">
			<data element_type="f32" offset="8684" shape="1, 16, 1, 1" size="64"/>
			<output>
				<port id="0" precision="FP32">
					<dim>1</dim>
					<dim>16</dim>
					<dim>1</dim>
					<dim>1</dim>
				</port>
			</output>
		</layer>
		<layer id="210" name="Add_22/Fused_Add_" type="Add" version="opset1">
			<data auto_broadcast="numpy"/>
			<input>
				<port id="0" precision="FP32">
					<dim>1</dim>
					<dim>16</dim>
					<dim>60</dim>
					<dim>60</dim>
				</port>
				<port id="1" precision="FP32">
					<dim>1</dim>
					<dim>16</dim>
					<dim>1</dim>
					<dim>1</dim>
				</port>
			</input>
			<output>
				<port id="2" names="batch_norm_22.tmp_2" precision="FP32">
					<dim>1</dim>
					<dim>16</dim>
					<dim>60</dim>
					<dim>60</dim>
				</port>
			</output>
		</layer>
		<layer id="211" name="Relu_22" type="ReLU" version="opset1">
			<input>
				<port id="0" precision="FP32">
					<dim>1</dim>
					<dim>16</dim>
					<dim>60</dim>
					<dim>60</dim>
				</port>
			</input>
			<output>
				<port id="1" names="relu_22.tmp_0" precision="FP32">
					<dim>1</dim>
					<dim>16</dim>
					<dim>60</dim>
					<dim>60</dim>
				</port>
			</output>
		</layer>
		<layer id="212" name="BatchNormalization_23/mean/Fused_Mul__copy" type="Const" version="opset1">
			<data element_type="f32" offset="8748" shape="8, 16, 1, 1" size="512"/>
			<output>
				<port id="0" names="conv2d_23.w_0" precision="FP32">
					<dim>8</dim>
					<dim>16</dim>
					<dim>1</dim>
					<dim>1</dim>
				</port>
			</output>
		</layer>
		<layer id="213" name="Conv_23" type="Convolution" version="opset1">
			<data auto_pad="explicit" dilations="1, 1" pads_begin="0, 0" pads_end="0, 0" strides="1, 1"/>
			<input>
				<port id="0" precision="FP32">
					<dim>1</dim>
					<dim>16</dim>
					<dim>60</dim>
					<dim>60</dim>
				</port>
				<port id="1" precision="FP32">
					<dim>8</dim>
					<dim>16</dim>
					<dim>1</dim>
					<dim>1</dim>
				</port>
			</input>
			<output>
				<port id="2" precision="FP32">
					<dim>1</dim>
					<dim>8</dim>
					<dim>60</dim>
					<dim>60</dim>
				</port>
			</output>
		</layer>
		<layer id="214" name="data_add_428474285281673" type="Const" version="opset1">
			<data element_type="f32" offset="9260" shape="1, 8, 1, 1" size="32"/>
			<output>
				<port id="0" precision="FP32">
					<dim>1</dim>
					<dim>8</dim>
					<dim>1</dim>
					<dim>1</dim>
				</port>
			</output>
		</layer>
		<layer id="215" name="Add_23/Fused_Add_" type="Add" version="opset1">
			<data auto_broadcast="numpy"/>
			<input>
				<port id="0" precision="FP32">
					<dim>1</dim>
					<dim>8</dim>
					<dim>60</dim>
					<dim>60</dim>
				</port>
				<port id="1" precision="FP32">
					<dim>1</dim>
					<dim>8</dim>
					<dim>1</dim>
					<dim>1</dim>
				</port>
			</input>
			<output>
				<port id="2" names="batch_norm_23.tmp_2" precision="FP32">
					<dim>1</dim>
					<dim>8</dim>
					<dim>60</dim>
					<dim>60</dim>
				</port>
			</output>
		</layer>
		<layer id="216" name="Relu_23" type="ReLU" version="opset1">
			<input>
				<port id="0" precision="FP32">
					<dim>1</dim>
					<dim>8</dim>
					<dim>60</dim>
					<dim>60</dim>
				</port>
			</input>
			<output>
				<port id="1" names="relu_23.tmp_0" precision="FP32">
					<dim>1</dim>
					<dim>8</dim>
					<dim>60</dim>
					<dim>60</dim>
				</port>
			</output>
		</layer>
		<layer id="217" name="Shape_7" type="ShapeOf" version="opset3">
			<data output_type="i64"/>
			<input>
				<port id="0" precision="FP32">
					<dim>1</dim>
					<dim>8</dim>
					<dim>60</dim>
					<dim>60</dim>
				</port>
			</input>
			<output>
				<port id="1" names="Shape_7" precision="I64">
					<dim>4</dim>
				</port>
			</output>
		</layer>
		<layer id="218" name="Slice_7/Concat2467080545" type="Const" version="opset1">
			<data element_type="i64" offset="5688" shape="1" size="8"/>
			<output>
				<port id="0" precision="I64">
					<dim>1</dim>
				</port>
			</output>
		</layer>
		<layer id="219" name="Slice_7/Concat246602467182309" type="Const" version="opset1">
			<data element_type="i64" offset="5696" shape="1" size="8"/>
			<output>
				<port id="0" precision="I64">
					<dim>1</dim>
				</port>
			</output>
		</layer>
		<layer id="220" name="Slice_7/Strides2467280749" type="Const" version="opset1">
			<data element_type="i64" offset="5704" shape="1" size="8"/>
			<output>
				<port id="0" precision="I64">
					<dim>1</dim>
				</port>
			</output>
		</layer>
		<layer id="221" name="Slice_7" type="StridedSlice" version="opset1">
			<data begin_mask="0" ellipsis_mask="0" end_mask="0" new_axis_mask="0" shrink_axis_mask="0"/>
			<input>
				<port id="0" precision="I64">
					<dim>4</dim>
				</port>
				<port id="1" precision="I64">
					<dim>1</dim>
				</port>
				<port id="2" precision="I64">
					<dim>1</dim>
				</port>
				<port id="3" precision="I64">
					<dim>1</dim>
				</port>
			</input>
			<output>
				<port id="4" names="Slice_7" precision="I64">
					<dim>2</dim>
				</port>
			</output>
		</layer>
		<layer id="222" name="Shape_6" type="ShapeOf" version="opset3">
			<data output_type="i64"/>
			<input>
				<port id="0" precision="FP32">
					<dim>1</dim>
					<dim>8</dim>
					<dim>120</dim>
					<dim>120</dim>
				</port>
			</input>
			<output>
				<port id="1" names="Shape_6" precision="I64">
					<dim>4</dim>
				</port>
			</output>
		</layer>
		<layer id="223" name="Cast_6" type="Convert" version="opset1">
			<data destination_type="i32"/>
			<input>
				<port id="0" precision="I64">
					<dim>4</dim>
				</port>
			</input>
			<output>
				<port id="1" names="shape_3.tmp_0" precision="I32">
					<dim>4</dim>
				</port>
			</output>
		</layer>
		<layer id="224" name="Slice_6/Concat2463481172" type="Const" version="opset1">
			<data element_type="i64" offset="5696" shape="1" size="8"/>
			<output>
				<port id="0" precision="I64">
					<dim>1</dim>
				</port>
			</output>
		</layer>
		<layer id="225" name="Slice_6/Concat246242463580512" type="Const" version="opset1">
			<data element_type="i64" offset="5712" shape="1" size="8"/>
			<output>
				<port id="0" precision="I64">
					<dim>1</dim>
				</port>
			</output>
		</layer>
		<layer id="226" name="Slice_6/Strides2463681502" type="Const" version="opset1">
			<data element_type="i64" offset="5704" shape="1" size="8"/>
			<output>
				<port id="0" precision="I64">
					<dim>1</dim>
				</port>
			</output>
		</layer>
		<layer id="227" name="Slice_6" type="StridedSlice" version="opset1">
			<data begin_mask="0" ellipsis_mask="0" end_mask="0" new_axis_mask="0" shrink_axis_mask="0"/>
			<input>
				<port id="0" precision="I32">
					<dim>4</dim>
				</port>
				<port id="1" precision="I64">
					<dim>1</dim>
				</port>
				<port id="2" precision="I64">
					<dim>1</dim>
				</port>
				<port id="3" precision="I64">
					<dim>1</dim>
				</port>
			</input>
			<output>
				<port id="4" names="shape_3.tmp_0_slice_0" precision="I32">
					<dim>2</dim>
				</port>
			</output>
		</layer>
		<layer id="228" name="Cast_7" type="Convert" version="opset1">
			<data destination_type="i64"/>
			<input>
				<port id="0" precision="I32">
					<dim>2</dim>
				</port>
			</input>
			<output>
				<port id="1" names="Cast_7" precision="I64">
					<dim>2</dim>
				</port>
			</output>
		</layer>
		<layer id="229" name="Concat_7" type="Concat" version="opset1">
			<data axis="0"/>
			<input>
				<port id="0" precision="I64">
					<dim>2</dim>
				</port>
				<port id="1" precision="I64">
					<dim>2</dim>
				</port>
			</input>
			<output>
				<port id="2" names="Concat_7" precision="I64">
					<dim>4</dim>
				</port>
			</output>
		</layer>
		<layer id="230" name="Resize_3/StridedSlice_sizes_input_port_1/value1772482411" type="Const" version="opset1">
			<data element_type="i64" offset="5696" shape="1" size="8"/>
			<output>
				<port id="0" precision="I64">
					<dim>1</dim>
				</port>
			</output>
		</layer>
		<layer id="231" name="Resize_3/StridedSlice_sizes_input_port_2/value1772681772" type="Const" version="opset1">
			<data element_type="i64" offset="5712" shape="1" size="8"/>
			<output>
				<port id="0" precision="I64">
					<dim>1</dim>
				</port>
			</output>
		</layer>
		<layer id="232" name="Resize_3/StridedSlice_sizes_input_port_3/value1772882198" type="Const" version="opset1">
			<data element_type="i64" offset="5704" shape="1" size="8"/>
			<output>
				<port id="0" precision="I64">
					<dim>1</dim>
				</port>
			</output>
		</layer>
		<layer id="233" name="Resize_3/StridedSlice_sizes" type="StridedSlice" version="opset1">
			<data begin_mask="0" ellipsis_mask="0" end_mask="0" new_axis_mask="0" shrink_axis_mask="0"/>
			<input>
				<port id="0" precision="I64">
					<dim>4</dim>
				</port>
				<port id="1" precision="I64">
					<dim>1</dim>
				</port>
				<port id="2" precision="I64">
					<dim>1</dim>
				</port>
				<port id="3" precision="I64">
					<dim>1</dim>
				</port>
			</input>
			<output>
				<port id="4" precision="I64">
					<dim>2</dim>
				</port>
			</output>
		</layer>
		<layer id="234" name="17744" type="Convert" version="opset1">
			<data destination_type="f32"/>
			<input>
				<port id="0" precision="I64">
					<dim>4</dim>
				</port>
			</input>
			<output>
				<port id="1" precision="FP32">
					<dim>4</dim>
				</port>
			</output>
		</layer>
		<layer id="235" name="Resize_3/ShapeOf" type="ShapeOf" version="opset3">
			<data output_type="i64"/>
			<input>
				<port id="0" precision="FP32">
					<dim>1</dim>
					<dim>8</dim>
					<dim>60</dim>
					<dim>60</dim>
				</port>
			</input>
			<output>
				<port id="1" precision="I64">
					<dim>4</dim>
				</port>
			</output>
		</layer>
		<layer id="236" name="17743" type="Convert" version="opset1">
			<data destination_type="f32"/>
			<input>
				<port id="0" precision="I64">
					<dim>4</dim>
				</port>
			</input>
			<output>
				<port id="1" precision="FP32">
					<dim>4</dim>
				</port>
			</output>
		</layer>
		<layer id="237" name="Resize_3/Div" type="Divide" version="opset1">
			<data auto_broadcast="numpy" m_pythondiv="true"/>
			<input>
				<port id="0" precision="FP32">
					<dim>4</dim>
				</port>
				<port id="1" precision="FP32">
					<dim>4</dim>
				</port>
			</input>
			<output>
				<port id="2" precision="FP32">
					<dim>4</dim>
				</port>
			</output>
		</layer>
		<layer id="238" name="Resize_3/Add_input_port_1/value1774281721" type="Const" version="opset1">
			<data element_type="f32" offset="5720" shape="1" size="4"/>
			<output>
				<port id="0" precision="FP32">
					<dim>1</dim>
				</port>
			</output>
		</layer>
		<layer id="239" name="Resize_3/Add" type="Add" version="opset1">
			<data auto_broadcast="numpy"/>
			<input>
				<port id="0" precision="FP32">
					<dim>4</dim>
				</port>
				<port id="1" precision="FP32">
					<dim>1</dim>
				</port>
			</input>
			<output>
				<port id="2" precision="FP32">
					<dim>4</dim>
				</port>
			</output>
		</layer>
		<layer id="240" name="Resize_3/StridedSlice_scales_input_port_1/value1773181103" type="Const" version="opset1">
			<data element_type="i64" offset="5696" shape="1" size="8"/>
			<output>
				<port id="0" precision="I64">
					<dim>1</dim>
				</port>
			</output>
		</layer>
		<layer id="241" name="Resize_3/StridedSlice_scales_input_port_2/value1773381301" type="Const" version="opset1">
			<data element_type="i64" offset="5712" shape="1" size="8"/>
			<output>
				<port id="0" precision="I64">
					<dim>1</dim>
				</port>
			</output>
		</layer>
		<layer id="242" name="Resize_3/StridedSlice_scales_input_port_3/value1773581223" type="Const" version="opset1">
			<data element_type="i64" offset="5704" shape="1" size="8"/>
			<output>
				<port id="0" precision="I64">
					<dim>1</dim>
				</port>
			</output>
		</layer>
		<layer id="243" name="Resize_3/StridedSlice_scales" type="StridedSlice" version="opset1">
			<data begin_mask="0" ellipsis_mask="0" end_mask="0" new_axis_mask="0" shrink_axis_mask="0"/>
			<input>
				<port id="0" precision="FP32">
					<dim>4</dim>
				</port>
				<port id="1" precision="I64">
					<dim>1</dim>
				</port>
				<port id="2" precision="I64">
					<dim>1</dim>
				</port>
				<port id="3" precision="I64">
					<dim>1</dim>
				</port>
			</input>
			<output>
				<port id="4" precision="FP32">
					<dim>2</dim>
				</port>
			</output>
		</layer>
		<layer id="244" name="Resize_3/axis1773882129" type="Const" version="opset1">
			<data element_type="i64" offset="5724" shape="2" size="16"/>
			<output>
				<port id="0" precision="I64">
					<dim>2</dim>
				</port>
			</output>
		</layer>
		<layer id="245" name="Resize_3" type="Interpolate" version="opset4">
			<data antialias="false" coordinate_transformation_mode="half_pixel" cube_coeff="-0.75" mode="linear_onnx" nearest_mode="round_prefer_floor" pads_begin="0, 0, 0, 0" pads_end="0, 0, 0, 0" shape_calculation_mode="sizes"/>
			<input>
				<port id="0" precision="FP32">
					<dim>1</dim>
					<dim>8</dim>
					<dim>60</dim>
					<dim>60</dim>
				</port>
				<port id="1" precision="I64">
					<dim>2</dim>
				</port>
				<port id="2" precision="FP32">
					<dim>2</dim>
				</port>
				<port id="3" precision="I64">
					<dim>2</dim>
				</port>
			</input>
			<output>
				<port id="4" names="bilinear_interp_v2_3.tmp_0" precision="FP32">
					<dim>1</dim>
					<dim>8</dim>
					<dim>120</dim>
					<dim>120</dim>
				</port>
			</output>
		</layer>
		<layer id="246" name="Concat_8" type="Concat" version="opset1">
			<data axis="1"/>
			<input>
				<port id="0" precision="FP32">
					<dim>1</dim>
					<dim>8</dim>
					<dim>120</dim>
					<dim>120</dim>
				</port>
				<port id="1" precision="FP32">
					<dim>1</dim>
					<dim>8</dim>
					<dim>120</dim>
					<dim>120</dim>
				</port>
			</input>
			<output>
				<port id="2" names="concat_4.tmp_0" precision="FP32">
					<dim>1</dim>
					<dim>16</dim>
					<dim>120</dim>
					<dim>120</dim>
				</port>
			</output>
		</layer>
		<layer id="247" name="BatchNormalization_24/mean/Fused_Mul__copy" type="Const" version="opset1">
			<data element_type="f32" offset="9292" shape="16, 1, 1, 3, 3" size="576"/>
			<output>
				<port id="0" names="conv2d_24.w_0" precision="FP32">
					<dim>16</dim>
					<dim>1</dim>
					<dim>1</dim>
					<dim>3</dim>
					<dim>3</dim>
				</port>
			</output>
		</layer>
		<layer id="248" name="Conv_24" type="GroupConvolution" version="opset1">
			<data auto_pad="explicit" dilations="1, 1" pads_begin="1, 1" pads_end="1, 1" strides="1, 1"/>
			<input>
				<port id="0" precision="FP32">
					<dim>1</dim>
					<dim>16</dim>
					<dim>120</dim>
					<dim>120</dim>
				</port>
				<port id="1" precision="FP32">
					<dim>16</dim>
					<dim>1</dim>
					<dim>1</dim>
					<dim>3</dim>
					<dim>3</dim>
				</port>
			</input>
			<output>
				<port id="2" precision="FP32">
					<dim>1</dim>
					<dim>16</dim>
					<dim>120</dim>
					<dim>120</dim>
				</port>
			</output>
		</layer>
		<layer id="249" name="data_add_428554286081355" type="Const" version="opset1">
			<data element_type="f32" offset="9868" shape="1, 16, 1, 1" size="64"/>
			<output>
				<port id="0" precision="FP32">
					<dim>1</dim>
					<dim>16</dim>
					<dim>1</dim>
					<dim>1</dim>
				</port>
			</output>
		</layer>
		<layer id="250" name="Add_24/Fused_Add_" type="Add" version="opset1">
			<data auto_broadcast="numpy"/>
			<input>
				<port id="0" precision="FP32">
					<dim>1</dim>
					<dim>16</dim>
					<dim>120</dim>
					<dim>120</dim>
				</port>
				<port id="1" precision="FP32">
					<dim>1</dim>
					<dim>16</dim>
					<dim>1</dim>
					<dim>1</dim>
				</port>
			</input>
			<output>
				<port id="2" names="batch_norm_24.tmp_2" precision="FP32">
					<dim>1</dim>
					<dim>16</dim>
					<dim>120</dim>
					<dim>120</dim>
				</port>
			</output>
		</layer>
		<layer id="251" name="Relu_24" type="ReLU" version="opset1">
			<input>
				<port id="0" precision="FP32">
					<dim>1</dim>
					<dim>16</dim>
					<dim>120</dim>
					<dim>120</dim>
				</port>
			</input>
			<output>
				<port id="1" names="relu_24.tmp_0" precision="FP32">
					<dim>1</dim>
					<dim>16</dim>
					<dim>120</dim>
					<dim>120</dim>
				</port>
			</output>
		</layer>
		<layer id="252" name="BatchNormalization_25/mean/Fused_Mul__copy" type="Const" version="opset1">
			<data element_type="f32" offset="9932" shape="8, 16, 1, 1" size="512"/>
			<output>
				<port id="0" names="conv2d_25.w_0" precision="FP32">
					<dim>8</dim>
					<dim>16</dim>
					<dim>1</dim>
					<dim>1</dim>
				</port>
			</output>
		</layer>
		<layer id="253" name="Conv_25" type="Convolution" version="opset1">
			<data auto_pad="explicit" dilations="1, 1" pads_begin="0, 0" pads_end="0, 0" strides="1, 1"/>
			<input>
				<port id="0" precision="FP32">
					<dim>1</dim>
					<dim>16</dim>
					<dim>120</dim>
					<dim>120</dim>
				</port>
				<port id="1" precision="FP32">
					<dim>8</dim>
					<dim>16</dim>
					<dim>1</dim>
					<dim>1</dim>
				</port>
			</input>
			<output>
				<port id="2" precision="FP32">
					<dim>1</dim>
					<dim>8</dim>
					<dim>120</dim>
					<dim>120</dim>
				</port>
			</output>
		</layer>
		<layer id="254" name="data_add_428634286881976" type="Const" version="opset1">
			<data element_type="f32" offset="10444" shape="1, 8, 1, 1" size="32"/>
			<output>
				<port id="0" precision="FP32">
					<dim>1</dim>
					<dim>8</dim>
					<dim>1</dim>
					<dim>1</dim>
				</port>
			</output>
		</layer>
		<layer id="255" name="Add_25/Fused_Add_" type="Add" version="opset1">
			<data auto_broadcast="numpy"/>
			<input>
				<port id="0" precision="FP32">
					<dim>1</dim>
					<dim>8</dim>
					<dim>120</dim>
					<dim>120</dim>
				</port>
				<port id="1" precision="FP32">
					<dim>1</dim>
					<dim>8</dim>
					<dim>1</dim>
					<dim>1</dim>
				</port>
			</input>
			<output>
				<port id="2" names="batch_norm_25.tmp_2" precision="FP32">
					<dim>1</dim>
					<dim>8</dim>
					<dim>120</dim>
					<dim>120</dim>
				</port>
			</output>
		</layer>
		<layer id="256" name="Relu_25" type="ReLU" version="opset1">
			<input>
				<port id="0" precision="FP32">
					<dim>1</dim>
					<dim>8</dim>
					<dim>120</dim>
					<dim>120</dim>
				</port>
			</input>
			<output>
				<port id="1" names="relu_25.tmp_0" precision="FP32">
					<dim>1</dim>
					<dim>8</dim>
					<dim>120</dim>
					<dim>120</dim>
				</port>
			</output>
		</layer>
		<layer id="257" name="Shape_9" type="ShapeOf" version="opset3">
			<data output_type="i64"/>
			<input>
				<port id="0" precision="FP32">
					<dim>1</dim>
					<dim>8</dim>
					<dim>120</dim>
					<dim>120</dim>
				</port>
			</input>
			<output>
				<port id="1" names="Shape_9" precision="I64">
					<dim>4</dim>
				</port>
			</output>
		</layer>
		<layer id="258" name="Slice_9/Concat2474282732" type="Const" version="opset1">
			<data element_type="i64" offset="5688" shape="1" size="8"/>
			<output>
				<port id="0" precision="I64">
					<dim>1</dim>
				</port>
			</output>
		</layer>
		<layer id="259" name="Slice_9/Concat247322474381472" type="Const" version="opset1">
			<data element_type="i64" offset="5696" shape="1" size="8"/>
			<output>
				<port id="0" precision="I64">
					<dim>1</dim>
				</port>
			</output>
		</layer>
		<layer id="260" name="Slice_9/Strides2474480407" type="Const" version="opset1">
			<data element_type="i64" offset="5704" shape="1" size="8"/>
			<output>
				<port id="0" precision="I64">
					<dim>1</dim>
				</port>
			</output>
		</layer>
		<layer id="261" name="Slice_9" type="StridedSlice" version="opset1">
			<data begin_mask="0" ellipsis_mask="0" end_mask="0" new_axis_mask="0" shrink_axis_mask="0"/>
			<input>
				<port id="0" precision="I64">
					<dim>4</dim>
				</port>
				<port id="1" precision="I64">
					<dim>1</dim>
				</port>
				<port id="2" precision="I64">
					<dim>1</dim>
				</port>
				<port id="3" precision="I64">
					<dim>1</dim>
				</port>
			</input>
			<output>
				<port id="4" names="Slice_9" precision="I64">
					<dim>2</dim>
				</port>
			</output>
		</layer>
		<layer id="262" name="Shape_8" type="ShapeOf" version="opset3">
			<data output_type="i64"/>
			<input>
				<port id="0" precision="FP32">
					<dim>1</dim>
					<dim>8</dim>
					<dim>240</dim>
					<dim>240</dim>
				</port>
			</input>
			<output>
				<port id="1" names="Shape_8" precision="I64">
					<dim>4</dim>
				</port>
			</output>
		</layer>
		<layer id="263" name="Cast_8" type="Convert" version="opset1">
			<data destination_type="i32"/>
			<input>
				<port id="0" precision="I64">
					<dim>4</dim>
				</port>
			</input>
			<output>
				<port id="1" names="shape_4.tmp_0" precision="I32">
					<dim>4</dim>
				</port>
			</output>
		</layer>
		<layer id="264" name="Slice_8/Concat2470680377" type="Const" version="opset1">
			<data element_type="i64" offset="5696" shape="1" size="8"/>
			<output>
				<port id="0" precision="I64">
					<dim>1</dim>
				</port>
			</output>
		</layer>
		<layer id="265" name="Slice_8/Concat246962470782156" type="Const" version="opset1">
			<data element_type="i64" offset="5712" shape="1" size="8"/>
			<output>
				<port id="0" precision="I64">
					<dim>1</dim>
				</port>
			</output>
		</layer>
		<layer id="266" name="Slice_8/Strides2470880776" type="Const" version="opset1">
			<data element_type="i64" offset="5704" shape="1" size="8"/>
			<output>
				<port id="0" precision="I64">
					<dim>1</dim>
				</port>
			</output>
		</layer>
		<layer id="267" name="Slice_8" type="StridedSlice" version="opset1">
			<data begin_mask="0" ellipsis_mask="0" end_mask="0" new_axis_mask="0" shrink_axis_mask="0"/>
			<input>
				<port id="0" precision="I32">
					<dim>4</dim>
				</port>
				<port id="1" precision="I64">
					<dim>1</dim>
				</port>
				<port id="2" precision="I64">
					<dim>1</dim>
				</port>
				<port id="3" precision="I64">
					<dim>1</dim>
				</port>
			</input>
			<output>
				<port id="4" names="shape_4.tmp_0_slice_0" precision="I32">
					<dim>2</dim>
				</port>
			</output>
		</layer>
		<layer id="268" name="Cast_9" type="Convert" version="opset1">
			<data destination_type="i64"/>
			<input>
				<port id="0" precision="I32">
					<dim>2</dim>
				</port>
			</input>
			<output>
				<port id="1" names="Cast_9" precision="I64">
					<dim>2</dim>
				</port>
			</output>
		</layer>
		<layer id="269" name="Concat_9" type="Concat" version="opset1">
			<data axis="0"/>
			<input>
				<port id="0" precision="I64">
					<dim>2</dim>
				</port>
				<port id="1" precision="I64">
					<dim>2</dim>
				</port>
			</input>
			<output>
				<port id="2" names="Concat_9" precision="I64">
					<dim>4</dim>
				</port>
			</output>
		</layer>
		<layer id="270" name="Resize_4/StridedSlice_sizes_input_port_1/value1775681265" type="Const" version="opset1">
			<data element_type="i64" offset="5696" shape="1" size="8"/>
			<output>
				<port id="0" precision="I64">
					<dim>1</dim>
				</port>
			</output>
		</layer>
		<layer id="271" name="Resize_4/StridedSlice_sizes_input_port_2/value1775880956" type="Const" version="opset1">
			<data element_type="i64" offset="5712" shape="1" size="8"/>
			<output>
				<port id="0" precision="I64">
					<dim>1</dim>
				</port>
			</output>
		</layer>
		<layer id="272" name="Resize_4/StridedSlice_sizes_input_port_3/value1776081112" type="Const" version="opset1">
			<data element_type="i64" offset="5704" shape="1" size="8"/>
			<output>
				<port id="0" precision="I64">
					<dim>1</dim>
				</port>
			</output>
		</layer>
		<layer id="273" name="Resize_4/StridedSlice_sizes" type="StridedSlice" version="opset1">
			<data begin_mask="0" ellipsis_mask="0" end_mask="0" new_axis_mask="0" shrink_axis_mask="0"/>
			<input>
				<port id="0" precision="I64">
					<dim>4</dim>
				</port>
				<port id="1" precision="I64">
					<dim>1</dim>
				</port>
				<port id="2" precision="I64">
					<dim>1</dim>
				</port>
				<port id="3" precision="I64">
					<dim>1</dim>
				</port>
			</input>
			<output>
				<port id="4" precision="I64">
					<dim>2</dim>
				</port>
			</output>
		</layer>
		<layer id="274" name="17776" type="Convert" version="opset1">
			<data destination_type="f32"/>
			<input>
				<port id="0" precision="I64">
					<dim>4</dim>
				</port>
			</input>
			<output>
				<port id="1" precision="FP32">
					<dim>4</dim>
				</port>
			</output>
		</layer>
		<layer id="275" name="Resize_4/ShapeOf" type="ShapeOf" version="opset3">
			<data output_type="i64"/>
			<input>
				<port id="0" precision="FP32">
					<dim>1</dim>
					<dim>8</dim>
					<dim>120</dim>
					<dim>120</dim>
				</port>
			</input>
			<output>
				<port id="1" precision="I64">
					<dim>4</dim>
				</port>
			</output>
		</layer>
		<layer id="276" name="17775" type="Convert" version="opset1">
			<data destination_type="f32"/>
			<input>
				<port id="0" precision="I64">
					<dim>4</dim>
				</port>
			</input>
			<output>
				<port id="1" precision="FP32">
					<dim>4</dim>
				</port>
			</output>
		</layer>
		<layer id="277" name="Resize_4/Div" type="Divide" version="opset1">
			<data auto_broadcast="numpy" m_pythondiv="true"/>
			<input>
				<port id="0" precision="FP32">
					<dim>4</dim>
				</port>
				<port id="1" precision="FP32">
					<dim>4</dim>
				</port>
			</input>
			<output>
				<port id="2" precision="FP32">
					<dim>4</dim>
				</port>
			</output>
		</layer>
		<layer id="278" name="Resize_4/Add_input_port_1/value1777482453" type="Const" version="opset1">
			<data element_type="f32" offset="5720" shape="1" size="4"/>
			<output>
				<port id="0" precision="FP32">
					<dim>1</dim>
				</port>
			</output>
		</layer>
		<layer id="279" name="Resize_4/Add" type="Add" version="opset1">
			<data auto_broadcast="numpy"/>
			<input>
				<port id="0" precision="FP32">
					<dim>4</dim>
				</port>
				<port id="1" precision="FP32">
					<dim>1</dim>
				</port>
			</input>
			<output>
				<port id="2" precision="FP32">
					<dim>4</dim>
				</port>
			</output>
		</layer>
		<layer id="280" name="Resize_4/StridedSlice_scales_input_port_1/value1776381970" type="Const" version="opset1">
			<data element_type="i64" offset="5696" shape="1" size="8"/>
			<output>
				<port id="0" precision="I64">
					<dim>1</dim>
				</port>
			</output>
		</layer>
		<layer id="281" name="Resize_4/StridedSlice_scales_input_port_2/value1776581064" type="Const" version="opset1">
			<data element_type="i64" offset="5712" shape="1" size="8"/>
			<output>
				<port id="0" precision="I64">
					<dim>1</dim>
				</port>
			</output>
		</layer>
		<layer id="282" name="Resize_4/StridedSlice_scales_input_port_3/value1776781025" type="Const" version="opset1">
			<data element_type="i64" offset="5704" shape="1" size="8"/>
			<output>
				<port id="0" precision="I64">
					<dim>1</dim>
				</port>
			</output>
		</layer>
		<layer id="283" name="Resize_4/StridedSlice_scales" type="StridedSlice" version="opset1">
			<data begin_mask="0" ellipsis_mask="0" end_mask="0" new_axis_mask="0" shrink_axis_mask="0"/>
			<input>
				<port id="0" precision="FP32">
					<dim>4</dim>
				</port>
				<port id="1" precision="I64">
					<dim>1</dim>
				</port>
				<port id="2" precision="I64">
					<dim>1</dim>
				</port>
				<port id="3" precision="I64">
					<dim>1</dim>
				</port>
			</input>
			<output>
				<port id="4" precision="FP32">
					<dim>2</dim>
				</port>
			</output>
		</layer>
		<layer id="284" name="Resize_4/axis1777080887" type="Const" version="opset1">
			<data element_type="i64" offset="5724" shape="2" size="16"/>
			<output>
				<port id="0" precision="I64">
					<dim>2</dim>
				</port>
			</output>
		</layer>
		<layer id="285" name="Resize_4" type="Interpolate" version="opset4">
			<data antialias="false" coordinate_transformation_mode="half_pixel" cube_coeff="-0.75" mode="linear_onnx" nearest_mode="round_prefer_floor" pads_begin="0, 0, 0, 0" pads_end="0, 0, 0, 0" shape_calculation_mode="sizes"/>
			<input>
				<port id="0" precision="FP32">
					<dim>1</dim>
					<dim>8</dim>
					<dim>120</dim>
					<dim>120</dim>
				</port>
				<port id="1" precision="I64">
					<dim>2</dim>
				</port>
				<port id="2" precision="FP32">
					<dim>2</dim>
				</port>
				<port id="3" precision="I64">
					<dim>2</dim>
				</port>
			</input>
			<output>
				<port id="4" names="bilinear_interp_v2_4.tmp_0" precision="FP32">
					<dim>1</dim>
					<dim>8</dim>
					<dim>240</dim>
					<dim>240</dim>
				</port>
			</output>
		</layer>
		<layer id="286" name="Concat_10" type="Concat" version="opset1">
			<data axis="1"/>
			<input>
				<port id="0" precision="FP32">
					<dim>1</dim>
					<dim>8</dim>
					<dim>240</dim>
					<dim>240</dim>
				</port>
				<port id="1" precision="FP32">
					<dim>1</dim>
					<dim>8</dim>
					<dim>240</dim>
					<dim>240</dim>
				</port>
			</input>
			<output>
				<port id="2" names="concat_5.tmp_0" precision="FP32">
					<dim>1</dim>
					<dim>16</dim>
					<dim>240</dim>
					<dim>240</dim>
				</port>
			</output>
		</layer>
		<layer id="287" name="BatchNormalization_26/mean/Fused_Mul__copy" type="Const" version="opset1">
			<data element_type="f32" offset="10476" shape="16, 1, 1, 3, 3" size="576"/>
			<output>
				<port id="0" names="conv2d_26.w_0" precision="FP32">
					<dim>16</dim>
					<dim>1</dim>
					<dim>1</dim>
					<dim>3</dim>
					<dim>3</dim>
				</port>
			</output>
		</layer>
		<layer id="288" name="Conv_26" type="GroupConvolution" version="opset1">
			<data auto_pad="explicit" dilations="1, 1" pads_begin="1, 1" pads_end="1, 1" strides="1, 1"/>
			<input>
				<port id="0" precision="FP32">
					<dim>1</dim>
					<dim>16</dim>
					<dim>240</dim>
					<dim>240</dim>
				</port>
				<port id="1" precision="FP32">
					<dim>16</dim>
					<dim>1</dim>
					<dim>1</dim>
					<dim>3</dim>
					<dim>3</dim>
				</port>
			</input>
			<output>
				<port id="2" precision="FP32">
					<dim>1</dim>
					<dim>16</dim>
					<dim>240</dim>
					<dim>240</dim>
				</port>
			</output>
		</layer>
		<layer id="289" name="data_add_428714287680920" type="Const" version="opset1">
			<data element_type="f32" offset="11052" shape="1, 16, 1, 1" size="64"/>
			<output>
				<port id="0" precision="FP32">
					<dim>1</dim>
					<dim>16</dim>
					<dim>1</dim>
					<dim>1</dim>
				</port>
			</output>
		</layer>
		<layer id="290" name="Add_26/Fused_Add_" type="Add" version="opset1">
			<data auto_broadcast="numpy"/>
			<input>
				<port id="0" precision="FP32">
					<dim>1</dim>
					<dim>16</dim>
					<dim>240</dim>
					<dim>240</dim>
				</port>
				<port id="1" precision="FP32">
					<dim>1</dim>
					<dim>16</dim>
					<dim>1</dim>
					<dim>1</dim>
				</port>
			</input>
			<output>
				<port id="2" names="batch_norm_26.tmp_2" precision="FP32">
					<dim>1</dim>
					<dim>16</dim>
					<dim>240</dim>
					<dim>240</dim>
				</port>
			</output>
		</layer>
		<layer id="291" name="Relu_26" type="ReLU" version="opset1">
			<input>
				<port id="0" precision="FP32">
					<dim>1</dim>
					<dim>16</dim>
					<dim>240</dim>
					<dim>240</dim>
				</port>
			</input>
			<output>
				<port id="1" names="relu_26.tmp_0" precision="FP32">
					<dim>1</dim>
					<dim>16</dim>
					<dim>240</dim>
					<dim>240</dim>
				</port>
			</output>
		</layer>
		<layer id="292" name="BatchNormalization_27/mean/Fused_Mul__copy" type="Const" version="opset1">
			<data element_type="f32" offset="11116" shape="8, 16, 1, 1" size="512"/>
			<output>
				<port id="0" names="conv2d_27.w_0" precision="FP32">
					<dim>8</dim>
					<dim>16</dim>
					<dim>1</dim>
					<dim>1</dim>
				</port>
			</output>
		</layer>
		<layer id="293" name="Conv_27" type="Convolution" version="opset1">
			<data auto_pad="explicit" dilations="1, 1" pads_begin="0, 0" pads_end="0, 0" strides="1, 1"/>
			<input>
				<port id="0" precision="FP32">
					<dim>1</dim>
					<dim>16</dim>
					<dim>240</dim>
					<dim>240</dim>
				</port>
				<port id="1" precision="FP32">
					<dim>8</dim>
					<dim>16</dim>
					<dim>1</dim>
					<dim>1</dim>
				</port>
			</input>
			<output>
				<port id="2" precision="FP32">
					<dim>1</dim>
					<dim>8</dim>
					<dim>240</dim>
					<dim>240</dim>
				</port>
			</output>
		</layer>
		<layer id="294" name="data_add_428794288480722" type="Const" version="opset1">
			<data element_type="f32" offset="11628" shape="1, 8, 1, 1" size="32"/>
			<output>
				<port id="0" precision="FP32">
					<dim>1</dim>
					<dim>8</dim>
					<dim>1</dim>
					<dim>1</dim>
				</port>
			</output>
		</layer>
		<layer id="295" name="Add_27/Fused_Add_" type="Add" version="opset1">
			<data auto_broadcast="numpy"/>
			<input>
				<port id="0" precision="FP32">
					<dim>1</dim>
					<dim>8</dim>
					<dim>240</dim>
					<dim>240</dim>
				</port>
				<port id="1" precision="FP32">
					<dim>1</dim>
					<dim>8</dim>
					<dim>1</dim>
					<dim>1</dim>
				</port>
			</input>
			<output>
				<port id="2" names="batch_norm_27.tmp_2" precision="FP32">
					<dim>1</dim>
					<dim>8</dim>
					<dim>240</dim>
					<dim>240</dim>
				</port>
			</output>
		</layer>
		<layer id="296" name="Relu_27" type="ReLU" version="opset1">
			<input>
				<port id="0" precision="FP32">
					<dim>1</dim>
					<dim>8</dim>
					<dim>240</dim>
					<dim>240</dim>
				</port>
			</input>
			<output>
				<port id="1" names="relu_27.tmp_0" precision="FP32">
					<dim>1</dim>
					<dim>8</dim>
					<dim>240</dim>
					<dim>240</dim>
				</port>
			</output>
		</layer>
		<layer id="297" name="Add_28" type="Add" version="opset1">
			<data auto_broadcast="numpy"/>
			<input>
				<port id="0" precision="FP32">
					<dim>1</dim>
					<dim>8</dim>
					<dim>240</dim>
					<dim>240</dim>
				</port>
				<port id="1" precision="FP32">
					<dim>1</dim>
					<dim>8</dim>
					<dim>240</dim>
					<dim>240</dim>
				</port>
			</input>
			<output>
				<port id="2" names="tmp_0" precision="FP32">
					<dim>1</dim>
					<dim>8</dim>
					<dim>240</dim>
					<dim>240</dim>
				</port>
			</output>
		</layer>
		<layer id="298" name="MaxPool_5" type="MaxPool" version="opset1">
			<data auto_pad="explicit" kernel="2, 2" pads_begin="0, 0" pads_end="0, 0" rounding_type="ceil" strides="2, 2"/>
			<input>
				<port id="0" precision="FP32">
					<dim>1</dim>
					<dim>8</dim>
					<dim>240</dim>
					<dim>240</dim>
				</port>
			</input>
			<output>
				<port id="1" names="pool2d_5.tmp_0" precision="FP32">
					<dim>1</dim>
					<dim>8</dim>
					<dim>120</dim>
					<dim>120</dim>
				</port>
			</output>
		</layer>
		<layer id="299" name="BatchNormalization_28/mean/Fused_Mul__copy" type="Const" version="opset1">
			<data element_type="f32" offset="11660" shape="8, 8, 3, 3" size="2304"/>
			<output>
				<port id="0" names="conv2d_28.w_0" precision="FP32">
					<dim>8</dim>
					<dim>8</dim>
					<dim>3</dim>
					<dim>3</dim>
				</port>
			</output>
		</layer>
		<layer id="300" name="Conv_28" type="Convolution" version="opset1">
			<data auto_pad="explicit" dilations="1, 1" pads_begin="1, 1" pads_end="1, 1" strides="1, 1"/>
			<input>
				<port id="0" precision="FP32">
					<dim>1</dim>
					<dim>8</dim>
					<dim>120</dim>
					<dim>120</dim>
				</port>
				<port id="1" precision="FP32">
					<dim>8</dim>
					<dim>8</dim>
					<dim>3</dim>
					<dim>3</dim>
				</port>
			</input>
			<output>
				<port id="2" precision="FP32">
					<dim>1</dim>
					<dim>8</dim>
					<dim>120</dim>
					<dim>120</dim>
				</port>
			</output>
		</layer>
		<layer id="301" name="data_add_428874289281685" type="Const" version="opset1">
			<data element_type="f32" offset="13964" shape="1, 8, 1, 1" size="32"/>
			<output>
				<port id="0" precision="FP32">
					<dim>1</dim>
					<dim>8</dim>
					<dim>1</dim>
					<dim>1</dim>
				</port>
			</output>
		</layer>
		<layer id="302" name="Add_29/Fused_Add_" type="Add" version="opset1">
			<data auto_broadcast="numpy"/>
			<input>
				<port id="0" precision="FP32">
					<dim>1</dim>
					<dim>8</dim>
					<dim>120</dim>
					<dim>120</dim>
				</port>
				<port id="1" precision="FP32">
					<dim>1</dim>
					<dim>8</dim>
					<dim>1</dim>
					<dim>1</dim>
				</port>
			</input>
			<output>
				<port id="2" names="batch_norm_28.tmp_2" precision="FP32">
					<dim>1</dim>
					<dim>8</dim>
					<dim>120</dim>
					<dim>120</dim>
				</port>
			</output>
		</layer>
		<layer id="303" name="Relu_28" type="ReLU" version="opset1">
			<input>
				<port id="0" precision="FP32">
					<dim>1</dim>
					<dim>8</dim>
					<dim>120</dim>
					<dim>120</dim>
				</port>
			</input>
			<output>
				<port id="1" names="relu_28.tmp_0" precision="FP32">
					<dim>1</dim>
					<dim>8</dim>
					<dim>120</dim>
					<dim>120</dim>
				</port>
			</output>
		</layer>
		<layer id="304" name="BatchNormalization_29/mean/Fused_Mul__copy" type="Const" version="opset1">
			<data element_type="f32" offset="13996" shape="8, 8, 3, 3" size="2304"/>
			<output>
				<port id="0" names="conv2d_29.w_0" precision="FP32">
					<dim>8</dim>
					<dim>8</dim>
					<dim>3</dim>
					<dim>3</dim>
				</port>
			</output>
		</layer>
		<layer id="305" name="Conv_29" type="Convolution" version="opset1">
			<data auto_pad="explicit" dilations="1, 1" pads_begin="1, 1" pads_end="1, 1" strides="1, 1"/>
			<input>
				<port id="0" precision="FP32">
					<dim>1</dim>
					<dim>8</dim>
					<dim>120</dim>
					<dim>120</dim>
				</port>
				<port id="1" precision="FP32">
					<dim>8</dim>
					<dim>8</dim>
					<dim>3</dim>
					<dim>3</dim>
				</port>
			</input>
			<output>
				<port id="2" precision="FP32">
					<dim>1</dim>
					<dim>8</dim>
					<dim>120</dim>
					<dim>120</dim>
				</port>
			</output>
		</layer>
		<layer id="306" name="data_add_428954290081067" type="Const" version="opset1">
			<data element_type="f32" offset="16300" shape="1, 8, 1, 1" size="32"/>
			<output>
				<port id="0" precision="FP32">
					<dim>1</dim>
					<dim>8</dim>
					<dim>1</dim>
					<dim>1</dim>
				</port>
			</output>
		</layer>
		<layer id="307" name="Add_30/Fused_Add_" type="Add" version="opset1">
			<data auto_broadcast="numpy"/>
			<input>
				<port id="0" precision="FP32">
					<dim>1</dim>
					<dim>8</dim>
					<dim>120</dim>
					<dim>120</dim>
				</port>
				<port id="1" precision="FP32">
					<dim>1</dim>
					<dim>8</dim>
					<dim>1</dim>
					<dim>1</dim>
				</port>
			</input>
			<output>
				<port id="2" names="batch_norm_29.tmp_2" precision="FP32">
					<dim>1</dim>
					<dim>8</dim>
					<dim>120</dim>
					<dim>120</dim>
				</port>
			</output>
		</layer>
		<layer id="308" name="Relu_29" type="ReLU" version="opset1">
			<input>
				<port id="0" precision="FP32">
					<dim>1</dim>
					<dim>8</dim>
					<dim>120</dim>
					<dim>120</dim>
				</port>
			</input>
			<output>
				<port id="1" names="relu_29.tmp_0" precision="FP32">
					<dim>1</dim>
					<dim>8</dim>
					<dim>120</dim>
					<dim>120</dim>
				</port>
			</output>
		</layer>
		<layer id="309" name="MaxPool_6" type="MaxPool" version="opset1">
			<data auto_pad="explicit" kernel="2, 2" pads_begin="0, 0" pads_end="0, 0" rounding_type="ceil" strides="2, 2"/>
			<input>
				<port id="0" precision="FP32">
					<dim>1</dim>
					<dim>8</dim>
					<dim>120</dim>
					<dim>120</dim>
				</port>
			</input>
			<output>
				<port id="1" names="pool2d_6.tmp_0" precision="FP32">
					<dim>1</dim>
					<dim>8</dim>
					<dim>60</dim>
					<dim>60</dim>
				</port>
			</output>
		</layer>
		<layer id="310" name="BatchNormalization_30/mean/Fused_Mul__copy" type="Const" version="opset1">
			<data element_type="f32" offset="16332" shape="8, 8, 3, 3" size="2304"/>
			<output>
				<port id="0" names="conv2d_30.w_0" precision="FP32">
					<dim>8</dim>
					<dim>8</dim>
					<dim>3</dim>
					<dim>3</dim>
				</port>
			</output>
		</layer>
		<layer id="311" name="Conv_30" type="Convolution" version="opset1">
			<data auto_pad="explicit" dilations="1, 1" pads_begin="1, 1" pads_end="1, 1" strides="1, 1"/>
			<input>
				<port id="0" precision="FP32">
					<dim>1</dim>
					<dim>8</dim>
					<dim>60</dim>
					<dim>60</dim>
				</port>
				<port id="1" precision="FP32">
					<dim>8</dim>
					<dim>8</dim>
					<dim>3</dim>
					<dim>3</dim>
				</port>
			</input>
			<output>
				<port id="2" precision="FP32">
					<dim>1</dim>
					<dim>8</dim>
					<dim>60</dim>
					<dim>60</dim>
				</port>
			</output>
		</layer>
		<layer id="312" name="data_add_429034290882312" type="Const" version="opset1">
			<data element_type="f32" offset="18636" shape="1, 8, 1, 1" size="32"/>
			<output>
				<port id="0" precision="FP32">
					<dim>1</dim>
					<dim>8</dim>
					<dim>1</dim>
					<dim>1</dim>
				</port>
			</output>
		</layer>
		<layer id="313" name="Add_31/Fused_Add_" type="Add" version="opset1">
			<data auto_broadcast="numpy"/>
			<input>
				<port id="0" precision="FP32">
					<dim>1</dim>
					<dim>8</dim>
					<dim>60</dim>
					<dim>60</dim>
				</port>
				<port id="1" precision="FP32">
					<dim>1</dim>
					<dim>8</dim>
					<dim>1</dim>
					<dim>1</dim>
				</port>
			</input>
			<output>
				<port id="2" names="batch_norm_30.tmp_2" precision="FP32">
					<dim>1</dim>
					<dim>8</dim>
					<dim>60</dim>
					<dim>60</dim>
				</port>
			</output>
		</layer>
		<layer id="314" name="Relu_30" type="ReLU" version="opset1">
			<input>
				<port id="0" precision="FP32">
					<dim>1</dim>
					<dim>8</dim>
					<dim>60</dim>
					<dim>60</dim>
				</port>
			</input>
			<output>
				<port id="1" names="relu_30.tmp_0" precision="FP32">
					<dim>1</dim>
					<dim>8</dim>
					<dim>60</dim>
					<dim>60</dim>
				</port>
			</output>
		</layer>
		<layer id="315" name="MaxPool_7" type="MaxPool" version="opset1">
			<data auto_pad="explicit" kernel="2, 2" pads_begin="0, 0" pads_end="0, 0" rounding_type="ceil" strides="2, 2"/>
			<input>
				<port id="0" precision="FP32">
					<dim>1</dim>
					<dim>8</dim>
					<dim>60</dim>
					<dim>60</dim>
				</port>
			</input>
			<output>
				<port id="1" names="pool2d_7.tmp_0" precision="FP32">
					<dim>1</dim>
					<dim>8</dim>
					<dim>30</dim>
					<dim>30</dim>
				</port>
			</output>
		</layer>
		<layer id="316" name="BatchNormalization_31/mean/Fused_Mul__copy" type="Const" version="opset1">
			<data element_type="f32" offset="18668" shape="8, 8, 3, 3" size="2304"/>
			<output>
				<port id="0" names="conv2d_31.w_0" precision="FP32">
					<dim>8</dim>
					<dim>8</dim>
					<dim>3</dim>
					<dim>3</dim>
				</port>
			</output>
		</layer>
		<layer id="317" name="Conv_31" type="Convolution" version="opset1">
			<data auto_pad="explicit" dilations="1, 1" pads_begin="1, 1" pads_end="1, 1" strides="1, 1"/>
			<input>
				<port id="0" precision="FP32">
					<dim>1</dim>
					<dim>8</dim>
					<dim>30</dim>
					<dim>30</dim>
				</port>
				<port id="1" precision="FP32">
					<dim>8</dim>
					<dim>8</dim>
					<dim>3</dim>
					<dim>3</dim>
				</port>
			</input>
			<output>
				<port id="2" precision="FP32">
					<dim>1</dim>
					<dim>8</dim>
					<dim>30</dim>
					<dim>30</dim>
				</port>
			</output>
		</layer>
		<layer id="318" name="data_add_429114291682738" type="Const" version="opset1">
			<data element_type="f32" offset="20972" shape="1, 8, 1, 1" size="32"/>
			<output>
				<port id="0" precision="FP32">
					<dim>1</dim>
					<dim>8</dim>
					<dim>1</dim>
					<dim>1</dim>
				</port>
			</output>
		</layer>
		<layer id="319" name="Add_32/Fused_Add_" type="Add" version="opset1">
			<data auto_broadcast="numpy"/>
			<input>
				<port id="0" precision="FP32">
					<dim>1</dim>
					<dim>8</dim>
					<dim>30</dim>
					<dim>30</dim>
				</port>
				<port id="1" precision="FP32">
					<dim>1</dim>
					<dim>8</dim>
					<dim>1</dim>
					<dim>1</dim>
				</port>
			</input>
			<output>
				<port id="2" names="batch_norm_31.tmp_2" precision="FP32">
					<dim>1</dim>
					<dim>8</dim>
					<dim>30</dim>
					<dim>30</dim>
				</port>
			</output>
		</layer>
		<layer id="320" name="Relu_31" type="ReLU" version="opset1">
			<input>
				<port id="0" precision="FP32">
					<dim>1</dim>
					<dim>8</dim>
					<dim>30</dim>
					<dim>30</dim>
				</port>
			</input>
			<output>
				<port id="1" names="relu_31.tmp_0" precision="FP32">
					<dim>1</dim>
					<dim>8</dim>
					<dim>30</dim>
					<dim>30</dim>
				</port>
			</output>
		</layer>
		<layer id="321" name="MaxPool_8" type="MaxPool" version="opset1">
			<data auto_pad="explicit" kernel="2, 2" pads_begin="0, 0" pads_end="0, 0" rounding_type="ceil" strides="2, 2"/>
			<input>
				<port id="0" precision="FP32">
					<dim>1</dim>
					<dim>8</dim>
					<dim>30</dim>
					<dim>30</dim>
				</port>
			</input>
			<output>
				<port id="1" names="pool2d_8.tmp_0" precision="FP32">
					<dim>1</dim>
					<dim>8</dim>
					<dim>15</dim>
					<dim>15</dim>
				</port>
			</output>
		</layer>
		<layer id="322" name="BatchNormalization_32/mean/Fused_Mul__copy" type="Const" version="opset1">
			<data element_type="f32" offset="21004" shape="8, 8, 3, 3" size="2304"/>
			<output>
				<port id="0" names="conv2d_32.w_0" precision="FP32">
					<dim>8</dim>
					<dim>8</dim>
					<dim>3</dim>
					<dim>3</dim>
				</port>
			</output>
		</layer>
		<layer id="323" name="Conv_32" type="Convolution" version="opset1">
			<data auto_pad="explicit" dilations="1, 1" pads_begin="1, 1" pads_end="1, 1" strides="1, 1"/>
			<input>
				<port id="0" precision="FP32">
					<dim>1</dim>
					<dim>8</dim>
					<dim>15</dim>
					<dim>15</dim>
				</port>
				<port id="1" precision="FP32">
					<dim>8</dim>
					<dim>8</dim>
					<dim>3</dim>
					<dim>3</dim>
				</port>
			</input>
			<output>
				<port id="2" precision="FP32">
					<dim>1</dim>
					<dim>8</dim>
					<dim>15</dim>
					<dim>15</dim>
				</port>
			</output>
		</layer>
		<layer id="324" name="data_add_429194292480437" type="Const" version="opset1">
			<data element_type="f32" offset="23308" shape="1, 8, 1, 1" size="32"/>
			<output>
				<port id="0" precision="FP32">
					<dim>1</dim>
					<dim>8</dim>
					<dim>1</dim>
					<dim>1</dim>
				</port>
			</output>
		</layer>
		<layer id="325" name="Add_33/Fused_Add_" type="Add" version="opset1">
			<data auto_broadcast="numpy"/>
			<input>
				<port id="0" precision="FP32">
					<dim>1</dim>
					<dim>8</dim>
					<dim>15</dim>
					<dim>15</dim>
				</port>
				<port id="1" precision="FP32">
					<dim>1</dim>
					<dim>8</dim>
					<dim>1</dim>
					<dim>1</dim>
				</port>
			</input>
			<output>
				<port id="2" names="batch_norm_32.tmp_2" precision="FP32">
					<dim>1</dim>
					<dim>8</dim>
					<dim>15</dim>
					<dim>15</dim>
				</port>
			</output>
		</layer>
		<layer id="326" name="Relu_32" type="ReLU" version="opset1">
			<input>
				<port id="0" precision="FP32">
					<dim>1</dim>
					<dim>8</dim>
					<dim>15</dim>
					<dim>15</dim>
				</port>
			</input>
			<output>
				<port id="1" names="relu_32.tmp_0" precision="FP32">
					<dim>1</dim>
					<dim>8</dim>
					<dim>15</dim>
					<dim>15</dim>
				</port>
			</output>
		</layer>
		<layer id="327" name="MaxPool_9" type="MaxPool" version="opset1">
			<data auto_pad="explicit" kernel="2, 2" pads_begin="0, 0" pads_end="0, 0" rounding_type="ceil" strides="2, 2"/>
			<input>
				<port id="0" precision="FP32">
					<dim>1</dim>
					<dim>8</dim>
					<dim>15</dim>
					<dim>15</dim>
				</port>
			</input>
			<output>
				<port id="1" names="pool2d_9.tmp_0" precision="FP32">
					<dim>1</dim>
					<dim>8</dim>
					<dim>8</dim>
					<dim>8</dim>
				</port>
			</output>
		</layer>
		<layer id="328" name="BatchNormalization_33/mean/Fused_Mul__copy" type="Const" version="opset1">
			<data element_type="f32" offset="23340" shape="8, 8, 3, 3" size="2304"/>
			<output>
				<port id="0" names="conv2d_33.w_0" precision="FP32">
					<dim>8</dim>
					<dim>8</dim>
					<dim>3</dim>
					<dim>3</dim>
				</port>
			</output>
		</layer>
		<layer id="329" name="Conv_33" type="Convolution" version="opset1">
			<data auto_pad="explicit" dilations="1, 1" pads_begin="1, 1" pads_end="1, 1" strides="1, 1"/>
			<input>
				<port id="0" precision="FP32">
					<dim>1</dim>
					<dim>8</dim>
					<dim>8</dim>
					<dim>8</dim>
				</port>
				<port id="1" precision="FP32">
					<dim>8</dim>
					<dim>8</dim>
					<dim>3</dim>
					<dim>3</dim>
				</port>
			</input>
			<output>
				<port id="2" precision="FP32">
					<dim>1</dim>
					<dim>8</dim>
					<dim>8</dim>
					<dim>8</dim>
				</port>
			</output>
		</layer>
		<layer id="330" name="data_add_429274293282816" type="Const" version="opset1">
			<data element_type="f32" offset="25644" shape="1, 8, 1, 1" size="32"/>
			<output>
				<port id="0" precision="FP32">
					<dim>1</dim>
					<dim>8</dim>
					<dim>1</dim>
					<dim>1</dim>
				</port>
			</output>
		</layer>
		<layer id="331" name="Add_34/Fused_Add_" type="Add" version="opset1">
			<data auto_broadcast="numpy"/>
			<input>
				<port id="0" precision="FP32">
					<dim>1</dim>
					<dim>8</dim>
					<dim>8</dim>
					<dim>8</dim>
				</port>
				<port id="1" precision="FP32">
					<dim>1</dim>
					<dim>8</dim>
					<dim>1</dim>
					<dim>1</dim>
				</port>
			</input>
			<output>
				<port id="2" names="batch_norm_33.tmp_2" precision="FP32">
					<dim>1</dim>
					<dim>8</dim>
					<dim>8</dim>
					<dim>8</dim>
				</port>
			</output>
		</layer>
		<layer id="332" name="Relu_33" type="ReLU" version="opset1">
			<input>
				<port id="0" precision="FP32">
					<dim>1</dim>
					<dim>8</dim>
					<dim>8</dim>
					<dim>8</dim>
				</port>
			</input>
			<output>
				<port id="1" names="relu_33.tmp_0" precision="FP32">
					<dim>1</dim>
					<dim>8</dim>
					<dim>8</dim>
					<dim>8</dim>
				</port>
			</output>
		</layer>
		<layer id="333" name="BatchNormalization_34/mean/Fused_Mul__copy" type="Const" version="opset1">
			<data element_type="f32" offset="25676" shape="8, 8, 3, 3" size="2304"/>
			<output>
				<port id="0" names="conv2d_34.w_0" precision="FP32">
					<dim>8</dim>
					<dim>8</dim>
					<dim>3</dim>
					<dim>3</dim>
				</port>
			</output>
		</layer>
		<layer id="334" name="Conv_34" type="Convolution" version="opset1">
			<data auto_pad="explicit" dilations="2, 2" pads_begin="2, 2" pads_end="2, 2" strides="1, 1"/>
			<input>
				<port id="0" precision="FP32">
					<dim>1</dim>
					<dim>8</dim>
					<dim>8</dim>
					<dim>8</dim>
				</port>
				<port id="1" precision="FP32">
					<dim>8</dim>
					<dim>8</dim>
					<dim>3</dim>
					<dim>3</dim>
				</port>
			</input>
			<output>
				<port id="2" precision="FP32">
					<dim>1</dim>
					<dim>8</dim>
					<dim>8</dim>
					<dim>8</dim>
				</port>
			</output>
		</layer>
		<layer id="335" name="data_add_429354294081904" type="Const" version="opset1">
			<data element_type="f32" offset="27980" shape="1, 8, 1, 1" size="32"/>
			<output>
				<port id="0" precision="FP32">
					<dim>1</dim>
					<dim>8</dim>
					<dim>1</dim>
					<dim>1</dim>
				</port>
			</output>
		</layer>
		<layer id="336" name="Add_35/Fused_Add_" type="Add" version="opset1">
			<data auto_broadcast="numpy"/>
			<input>
				<port id="0" precision="FP32">
					<dim>1</dim>
					<dim>8</dim>
					<dim>8</dim>
					<dim>8</dim>
				</port>
				<port id="1" precision="FP32">
					<dim>1</dim>
					<dim>8</dim>
					<dim>1</dim>
					<dim>1</dim>
				</port>
			</input>
			<output>
				<port id="2" names="batch_norm_34.tmp_2" precision="FP32">
					<dim>1</dim>
					<dim>8</dim>
					<dim>8</dim>
					<dim>8</dim>
				</port>
			</output>
		</layer>
		<layer id="337" name="Relu_34" type="ReLU" version="opset1">
			<input>
				<port id="0" precision="FP32">
					<dim>1</dim>
					<dim>8</dim>
					<dim>8</dim>
					<dim>8</dim>
				</port>
			</input>
			<output>
				<port id="1" names="relu_34.tmp_0" precision="FP32">
					<dim>1</dim>
					<dim>8</dim>
					<dim>8</dim>
					<dim>8</dim>
				</port>
			</output>
		</layer>
		<layer id="338" name="Concat_11" type="Concat" version="opset1">
			<data axis="1"/>
			<input>
				<port id="0" precision="FP32">
					<dim>1</dim>
					<dim>8</dim>
					<dim>8</dim>
					<dim>8</dim>
				</port>
				<port id="1" precision="FP32">
					<dim>1</dim>
					<dim>8</dim>
					<dim>8</dim>
					<dim>8</dim>
				</port>
			</input>
			<output>
				<port id="2" names="concat_6.tmp_0" precision="FP32">
					<dim>1</dim>
					<dim>16</dim>
					<dim>8</dim>
					<dim>8</dim>
				</port>
			</output>
		</layer>
		<layer id="339" name="BatchNormalization_35/mean/Fused_Mul__copy" type="Const" version="opset1">
			<data element_type="f32" offset="28012" shape="8, 16, 3, 3" size="4608"/>
			<output>
				<port id="0" names="conv2d_35.w_0" precision="FP32">
					<dim>8</dim>
					<dim>16</dim>
					<dim>3</dim>
					<dim>3</dim>
				</port>
			</output>
		</layer>
		<layer id="340" name="Conv_35" type="Convolution" version="opset1">
			<data auto_pad="explicit" dilations="1, 1" pads_begin="1, 1" pads_end="1, 1" strides="1, 1"/>
			<input>
				<port id="0" precision="FP32">
					<dim>1</dim>
					<dim>16</dim>
					<dim>8</dim>
					<dim>8</dim>
				</port>
				<port id="1" precision="FP32">
					<dim>8</dim>
					<dim>16</dim>
					<dim>3</dim>
					<dim>3</dim>
				</port>
			</input>
			<output>
				<port id="2" precision="FP32">
					<dim>1</dim>
					<dim>8</dim>
					<dim>8</dim>
					<dim>8</dim>
				</port>
			</output>
		</layer>
		<layer id="341" name="data_add_429434294882672" type="Const" version="opset1">
			<data element_type="f32" offset="32620" shape="1, 8, 1, 1" size="32"/>
			<output>
				<port id="0" precision="FP32">
					<dim>1</dim>
					<dim>8</dim>
					<dim>1</dim>
					<dim>1</dim>
				</port>
			</output>
		</layer>
		<layer id="342" name="Add_36/Fused_Add_" type="Add" version="opset1">
			<data auto_broadcast="numpy"/>
			<input>
				<port id="0" precision="FP32">
					<dim>1</dim>
					<dim>8</dim>
					<dim>8</dim>
					<dim>8</dim>
				</port>
				<port id="1" precision="FP32">
					<dim>1</dim>
					<dim>8</dim>
					<dim>1</dim>
					<dim>1</dim>
				</port>
			</input>
			<output>
				<port id="2" names="batch_norm_35.tmp_2" precision="FP32">
					<dim>1</dim>
					<dim>8</dim>
					<dim>8</dim>
					<dim>8</dim>
				</port>
			</output>
		</layer>
		<layer id="343" name="Relu_35" type="ReLU" version="opset1">
			<input>
				<port id="0" precision="FP32">
					<dim>1</dim>
					<dim>8</dim>
					<dim>8</dim>
					<dim>8</dim>
				</port>
			</input>
			<output>
				<port id="1" names="relu_35.tmp_0" precision="FP32">
					<dim>1</dim>
					<dim>8</dim>
					<dim>8</dim>
					<dim>8</dim>
				</port>
			</output>
		</layer>
		<layer id="344" name="Shape_11" type="ShapeOf" version="opset3">
			<data output_type="i64"/>
			<input>
				<port id="0" precision="FP32">
					<dim>1</dim>
					<dim>8</dim>
					<dim>8</dim>
					<dim>8</dim>
				</port>
			</input>
			<output>
				<port id="1" names="Shape_11" precision="I64">
					<dim>4</dim>
				</port>
			</output>
		</layer>
		<layer id="345" name="Slice_11/Concat2481482588" type="Const" version="opset1">
			<data element_type="i64" offset="5688" shape="1" size="8"/>
			<output>
				<port id="0" precision="I64">
					<dim>1</dim>
				</port>
			</output>
		</layer>
		<layer id="346" name="Slice_11/Concat248042481580515" type="Const" version="opset1">
			<data element_type="i64" offset="5696" shape="1" size="8"/>
			<output>
				<port id="0" precision="I64">
					<dim>1</dim>
				</port>
			</output>
		</layer>
		<layer id="347" name="Slice_11/Strides2481680725" type="Const" version="opset1">
			<data element_type="i64" offset="5704" shape="1" size="8"/>
			<output>
				<port id="0" precision="I64">
					<dim>1</dim>
				</port>
			</output>
		</layer>
		<layer id="348" name="Slice_11" type="StridedSlice" version="opset1">
			<data begin_mask="0" ellipsis_mask="0" end_mask="0" new_axis_mask="0" shrink_axis_mask="0"/>
			<input>
				<port id="0" precision="I64">
					<dim>4</dim>
				</port>
				<port id="1" precision="I64">
					<dim>1</dim>
				</port>
				<port id="2" precision="I64">
					<dim>1</dim>
				</port>
				<port id="3" precision="I64">
					<dim>1</dim>
				</port>
			</input>
			<output>
				<port id="4" names="Slice_11" precision="I64">
					<dim>2</dim>
				</port>
			</output>
		</layer>
		<layer id="349" name="Shape_10" type="ShapeOf" version="opset3">
			<data output_type="i64"/>
			<input>
				<port id="0" precision="FP32">
					<dim>1</dim>
					<dim>8</dim>
					<dim>15</dim>
					<dim>15</dim>
				</port>
			</input>
			<output>
				<port id="1" names="Shape_10" precision="I64">
					<dim>4</dim>
				</port>
			</output>
		</layer>
		<layer id="350" name="Cast_10" type="Convert" version="opset1">
			<data destination_type="i32"/>
			<input>
				<port id="0" precision="I64">
					<dim>4</dim>
				</port>
			</input>
			<output>
				<port id="1" names="shape_5.tmp_0" precision="I32">
					<dim>4</dim>
				</port>
			</output>
		</layer>
		<layer id="351" name="Slice_10/Concat2477881601" type="Const" version="opset1">
			<data element_type="i64" offset="5696" shape="1" size="8"/>
			<output>
				<port id="0" precision="I64">
					<dim>1</dim>
				</port>
			</output>
		</layer>
		<layer id="352" name="Slice_10/Concat247682477981346" type="Const" version="opset1">
			<data element_type="i64" offset="5712" shape="1" size="8"/>
			<output>
				<port id="0" precision="I64">
					<dim>1</dim>
				</port>
			</output>
		</layer>
		<layer id="353" name="Slice_10/Strides2478080992" type="Const" version="opset1">
			<data element_type="i64" offset="5704" shape="1" size="8"/>
			<output>
				<port id="0" precision="I64">
					<dim>1</dim>
				</port>
			</output>
		</layer>
		<layer id="354" name="Slice_10" type="StridedSlice" version="opset1">
			<data begin_mask="0" ellipsis_mask="0" end_mask="0" new_axis_mask="0" shrink_axis_mask="0"/>
			<input>
				<port id="0" precision="I32">
					<dim>4</dim>
				</port>
				<port id="1" precision="I64">
					<dim>1</dim>
				</port>
				<port id="2" precision="I64">
					<dim>1</dim>
				</port>
				<port id="3" precision="I64">
					<dim>1</dim>
				</port>
			</input>
			<output>
				<port id="4" names="shape_5.tmp_0_slice_0" precision="I32">
					<dim>2</dim>
				</port>
			</output>
		</layer>
		<layer id="355" name="Cast_11" type="Convert" version="opset1">
			<data destination_type="i64"/>
			<input>
				<port id="0" precision="I32">
					<dim>2</dim>
				</port>
			</input>
			<output>
				<port id="1" names="Cast_11" precision="I64">
					<dim>2</dim>
				</port>
			</output>
		</layer>
		<layer id="356" name="Concat_12" type="Concat" version="opset1">
			<data axis="0"/>
			<input>
				<port id="0" precision="I64">
					<dim>2</dim>
				</port>
				<port id="1" precision="I64">
					<dim>2</dim>
				</port>
			</input>
			<output>
				<port id="2" names="Concat_12" precision="I64">
					<dim>4</dim>
				</port>
			</output>
		</layer>
		<layer id="357" name="Resize_5/StridedSlice_sizes_input_port_1/value1778880716" type="Const" version="opset1">
			<data element_type="i64" offset="5696" shape="1" size="8"/>
			<output>
				<port id="0" precision="I64">
					<dim>1</dim>
				</port>
			</output>
		</layer>
		<layer id="358" name="Resize_5/StridedSlice_sizes_input_port_2/value1779081859" type="Const" version="opset1">
			<data element_type="i64" offset="5712" shape="1" size="8"/>
			<output>
				<port id="0" precision="I64">
					<dim>1</dim>
				</port>
			</output>
		</layer>
		<layer id="359" name="Resize_5/StridedSlice_sizes_input_port_3/value1779281871" type="Const" version="opset1">
			<data element_type="i64" offset="5704" shape="1" size="8"/>
			<output>
				<port id="0" precision="I64">
					<dim>1</dim>
				</port>
			</output>
		</layer>
		<layer id="360" name="Resize_5/StridedSlice_sizes" type="StridedSlice" version="opset1">
			<data begin_mask="0" ellipsis_mask="0" end_mask="0" new_axis_mask="0" shrink_axis_mask="0"/>
			<input>
				<port id="0" precision="I64">
					<dim>4</dim>
				</port>
				<port id="1" precision="I64">
					<dim>1</dim>
				</port>
				<port id="2" precision="I64">
					<dim>1</dim>
				</port>
				<port id="3" precision="I64">
					<dim>1</dim>
				</port>
			</input>
			<output>
				<port id="4" precision="I64">
					<dim>2</dim>
				</port>
			</output>
		</layer>
		<layer id="361" name="17808" type="Convert" version="opset1">
			<data destination_type="f32"/>
			<input>
				<port id="0" precision="I64">
					<dim>4</dim>
				</port>
			</input>
			<output>
				<port id="1" precision="FP32">
					<dim>4</dim>
				</port>
			</output>
		</layer>
		<layer id="362" name="Resize_5/ShapeOf" type="ShapeOf" version="opset3">
			<data output_type="i64"/>
			<input>
				<port id="0" precision="FP32">
					<dim>1</dim>
					<dim>8</dim>
					<dim>8</dim>
					<dim>8</dim>
				</port>
			</input>
			<output>
				<port id="1" precision="I64">
					<dim>4</dim>
				</port>
			</output>
		</layer>
		<layer id="363" name="17807" type="Convert" version="opset1">
			<data destination_type="f32"/>
			<input>
				<port id="0" precision="I64">
					<dim>4</dim>
				</port>
			</input>
			<output>
				<port id="1" precision="FP32">
					<dim>4</dim>
				</port>
			</output>
		</layer>
		<layer id="364" name="Resize_5/Div" type="Divide" version="opset1">
			<data auto_broadcast="numpy" m_pythondiv="true"/>
			<input>
				<port id="0" precision="FP32">
					<dim>4</dim>
				</port>
				<port id="1" precision="FP32">
					<dim>4</dim>
				</port>
			</input>
			<output>
				<port id="2" precision="FP32">
					<dim>4</dim>
				</port>
			</output>
		</layer>
		<layer id="365" name="Resize_5/Add_input_port_1/value1780682561" type="Const" version="opset1">
			<data element_type="f32" offset="5720" shape="1" size="4"/>
			<output>
				<port id="0" precision="FP32">
					<dim>1</dim>
				</port>
			</output>
		</layer>
		<layer id="366" name="Resize_5/Add" type="Add" version="opset1">
			<data auto_broadcast="numpy"/>
			<input>
				<port id="0" precision="FP32">
					<dim>4</dim>
				</port>
				<port id="1" precision="FP32">
					<dim>1</dim>
				</port>
			</input>
			<output>
				<port id="2" precision="FP32">
					<dim>4</dim>
				</port>
			</output>
		</layer>
		<layer id="367" name="Resize_5/StridedSlice_scales_input_port_1/value1779581835" type="Const" version="opset1">
			<data element_type="i64" offset="5696" shape="1" size="8"/>
			<output>
				<port id="0" precision="I64">
					<dim>1</dim>
				</port>
			</output>
		</layer>
		<layer id="368" name="Resize_5/StridedSlice_scales_input_port_2/value1779780758" type="Const" version="opset1">
			<data element_type="i64" offset="5712" shape="1" size="8"/>
			<output>
				<port id="0" precision="I64">
					<dim>1</dim>
				</port>
			</output>
		</layer>
		<layer id="369" name="Resize_5/StridedSlice_scales_input_port_3/value1779982375" type="Const" version="opset1">
			<data element_type="i64" offset="5704" shape="1" size="8"/>
			<output>
				<port id="0" precision="I64">
					<dim>1</dim>
				</port>
			</output>
		</layer>
		<layer id="370" name="Resize_5/StridedSlice_scales" type="StridedSlice" version="opset1">
			<data begin_mask="0" ellipsis_mask="0" end_mask="0" new_axis_mask="0" shrink_axis_mask="0"/>
			<input>
				<port id="0" precision="FP32">
					<dim>4</dim>
				</port>
				<port id="1" precision="I64">
					<dim>1</dim>
				</port>
				<port id="2" precision="I64">
					<dim>1</dim>
				</port>
				<port id="3" precision="I64">
					<dim>1</dim>
				</port>
			</input>
			<output>
				<port id="4" precision="FP32">
					<dim>2</dim>
				</port>
			</output>
		</layer>
		<layer id="371" name="Resize_5/axis1780281832" type="Const" version="opset1">
			<data element_type="i64" offset="5724" shape="2" size="16"/>
			<output>
				<port id="0" precision="I64">
					<dim>2</dim>
				</port>
			</output>
		</layer>
		<layer id="372" name="Resize_5" type="Interpolate" version="opset4">
			<data antialias="false" coordinate_transformation_mode="half_pixel" cube_coeff="-0.75" mode="linear_onnx" nearest_mode="round_prefer_floor" pads_begin="0, 0, 0, 0" pads_end="0, 0, 0, 0" shape_calculation_mode="sizes"/>
			<input>
				<port id="0" precision="FP32">
					<dim>1</dim>
					<dim>8</dim>
					<dim>8</dim>
					<dim>8</dim>
				</port>
				<port id="1" precision="I64">
					<dim>2</dim>
				</port>
				<port id="2" precision="FP32">
					<dim>2</dim>
				</port>
				<port id="3" precision="I64">
					<dim>2</dim>
				</port>
			</input>
			<output>
				<port id="4" names="bilinear_interp_v2_5.tmp_0" precision="FP32">
					<dim>1</dim>
					<dim>8</dim>
					<dim>15</dim>
					<dim>15</dim>
				</port>
			</output>
		</layer>
		<layer id="373" name="Concat_13" type="Concat" version="opset1">
			<data axis="1"/>
			<input>
				<port id="0" precision="FP32">
					<dim>1</dim>
					<dim>8</dim>
					<dim>15</dim>
					<dim>15</dim>
				</port>
				<port id="1" precision="FP32">
					<dim>1</dim>
					<dim>8</dim>
					<dim>15</dim>
					<dim>15</dim>
				</port>
			</input>
			<output>
				<port id="2" names="concat_7.tmp_0" precision="FP32">
					<dim>1</dim>
					<dim>16</dim>
					<dim>15</dim>
					<dim>15</dim>
				</port>
			</output>
		</layer>
		<layer id="374" name="BatchNormalization_36/mean/Fused_Mul__copy" type="Const" version="opset1">
…
		<edge from-layer="1305" from-port="2" to-layer="1309" to-port="0"/>
		<edge from-layer="1306" from-port="0" to-layer="1309" to-port="1"/>
		<edge from-layer="1307" from-port="0" to-layer="1309" to-port="2"/>
		<edge from-layer="1308" from-port="0" to-layer="1309" to-port="3"/>
		<edge from-layer="1309" from-port="4" to-layer="1321" to-port="1"/>
		<edge from-layer="1310" from-port="1" to-layer="1313" to-port="0"/>
		<edge from-layer="1311" from-port="1" to-layer="1312" to-port="0"/>
		<edge from-layer="1312" from-port="1" to-layer="1313" to-port="1"/>
		<edge from-layer="1313" from-port="2" to-layer="1315" to-port="0"/>
		<edge from-layer="1314" from-port="0" to-layer="1315" to-port="1"/>
		<edge from-layer="1315" from-port="2" to-layer="1319" to-port="0"/>
		<edge from-layer="1316" from-port="0" to-layer="1319" to-port="1"/>
		<edge from-layer="1317" from-port="0" to-layer="1319" to-port="2"/>
		<edge from-layer="1318" from-port="0" to-layer="1319" to-port="3"/>
		<edge from-layer="1319" from-port="4" to-layer="1321" to-port="2"/>
		<edge from-layer="1320" from-port="0" to-layer="1321" to-port="3"/>
		<edge from-layer="1321" from-port="4" to-layer="1322" to-port="0"/>
		<edge from-layer="1322" from-port="2" to-layer="1324" to-port="0"/>
		<edge from-layer="1323" from-port="0" to-layer="1324" to-port="1"/>
		<edge from-layer="1324" from-port="2" to-layer="1326" to-port="0"/>
		<edge from-layer="1325" from-port="0" to-layer="1326" to-port="1"/>
		<edge from-layer="1326" from-port="2" to-layer="1327" to-port="0"/>
		<edge from-layer="1327" from-port="1" to-layer="1356" to-port="0"/>
		<edge from-layer="1327" from-port="1" to-layer="1328" to-port="0"/>
		<edge from-layer="1327" from-port="1" to-layer="1346" to-port="0"/>
		<edge from-layer="1328" from-port="1" to-layer="1332" to-port="0"/>
		<edge from-layer="1329" from-port="0" to-layer="1332" to-port="1"/>
		<edge from-layer="1330" from-port="0" to-layer="1332" to-port="2"/>
		<edge from-layer="1331" from-port="0" to-layer="1332" to-port="3"/>
		<edge from-layer="1332" from-port="4" to-layer="1340" to-port="0"/>
		<edge from-layer="1333" from-port="1" to-layer="1334" to-port="0"/>
		<edge from-layer="1334" from-port="1" to-layer="1338" to-port="0"/>
		<edge from-layer="1335" from-port="0" to-layer="1338" to-port="1"/>
		<edge from-layer="1336" from-port="0" to-layer="1338" to-port="2"/>
		<edge from-layer="1337" from-port="0" to-layer="1338" to-port="3"/>
		<edge from-layer="1338" from-port="4" to-layer="1339" to-port="0"/>
		<edge from-layer="1339" from-port="1" to-layer="1340" to-port="1"/>
		<edge from-layer="1340" from-port="2" to-layer="1344" to-port="0"/>
		<edge from-layer="1340" from-port="2" to-layer="1345" to-port="0"/>
		<edge from-layer="1341" from-port="0" to-layer="1344" to-port="1"/>
		<edge from-layer="1342" from-port="0" to-layer="1344" to-port="2"/>
		<edge from-layer="1343" from-port="0" to-layer="1344" to-port="3"/>
		<edge from-layer="1344" from-port="4" to-layer="1356" to-port="1"/>
		<edge from-layer="1345" from-port="1" to-layer="1348" to-port="0"/>
		<edge from-layer="1346" from-port="1" to-layer="1347" to-port="0"/>
		<edge from-layer="1347" from-port="1" to-layer="1348" to-port="1"/>
		<edge from-layer="1348" from-port="2" to-layer="1350" to-port="0"/>
		<edge from-layer="1349" from-port="0" to-layer="1350" to-port="1"/>
		<edge from-layer="1350" from-port="2" to-layer="1354" to-port="0"/>
		<edge from-layer="1351" from-port="0" to-layer="1354" to-port="1"/>
		<edge from-layer="1352" from-port="0" to-layer="1354" to-port="2"/>
		<edge from-layer="1353" from-port="0" to-layer="1354" to-port="3"/>
		<edge from-layer="1354" from-port="4" to-layer="1356" to-port="2"/>
		<edge from-layer="1355" from-port="0" to-layer="1356" to-port="3"/>
		<edge from-layer="1356" from-port="4" to-layer="1357" to-port="0"/>
		<edge from-layer="1357" from-port="2" to-layer="1359" to-port="0"/>
		<edge from-layer="1358" from-port="0" to-layer="1359" to-port="1"/>
		<edge from-layer="1359" from-port="2" to-layer="1361" to-port="0"/>
		<edge from-layer="1360" from-port="0" to-layer="1361" to-port="1"/>
		<edge from-layer="1361" from-port="2" to-layer="1362" to-port="0"/>
		<edge from-layer="1362" from-port="1" to-layer="1363" to-port="0"/>
		<edge from-layer="1362" from-port="1" to-layer="1391" to-port="0"/>
		<edge from-layer="1362" from-port="1" to-layer="1381" to-port="0"/>
		<edge from-layer="1363" from-port="1" to-layer="1367" to-port="0"/>
		<edge from-layer="1364" from-port="0" to-layer="1367" to-port="1"/>
		<edge from-layer="1365" from-port="0" to-layer="1367" to-port="2"/>
		<edge from-layer="1366" from-port="0" to-layer="1367" to-port="3"/>
		<edge from-layer="1367" from-port="4" to-layer="1375" to-port="0"/>
		<edge from-layer="1368" from-port="1" to-layer="1369" to-port="0"/>
		<edge from-layer="1369" from-port="1" to-layer="1373" to-port="0"/>
		<edge from-layer="1370" from-port="0" to-layer="1373" to-port="1"/>
		<edge from-layer="1371" from-port="0" to-layer="1373" to-port="2"/>
		<edge from-layer="1372" from-port="0" to-layer="1373" to-port="3"/>
		<edge from-layer="1373" from-port="4" to-layer="1374" to-port="0"/>
		<edge from-layer="1374" from-port="1" to-layer="1375" to-port="1"/>
		<edge from-layer="1375" from-port="2" to-layer="1380" to-port="0"/>
		<edge from-layer="1375" from-port="2" to-layer="1379" to-port="0"/>
		<edge from-layer="1376" from-port="0" to-layer="1379" to-port="1"/>
		<edge from-layer="1377" from-port="0" to-layer="1379" to-port="2"/>
		<edge from-layer="1378" from-port="0" to-layer="1379" to-port="3"/>
		<edge from-layer="1379" from-port="4" to-layer="1391" to-port="1"/>
		<edge from-layer="1380" from-port="1" to-layer="1383" to-port="0"/>
		<edge from-layer="1381" from-port="1" to-layer="1382" to-port="0"/>
		<edge from-layer="1382" from-port="1" to-layer="1383" to-port="1"/>
		<edge from-layer="1383" from-port="2" to-layer="1385" to-port="0"/>
		<edge from-layer="1384" from-port="0" to-layer="1385" to-port="1"/>
		<edge from-layer="1385" from-port="2" to-layer="1389" to-port="0"/>
		<edge from-layer="1386" from-port="0" to-layer="1389" to-port="1"/>
		<edge from-layer="1387" from-port="0" to-layer="1389" to-port="2"/>
		<edge from-layer="1388" from-port="0" to-layer="1389" to-port="3"/>
		<edge from-layer="1389" from-port="4" to-layer="1391" to-port="2"/>
		<edge from-layer="1390" from-port="0" to-layer="1391" to-port="3"/>
		<edge from-layer="1391" from-port="4" to-layer="1392" to-port="0"/>
		<edge from-layer="1392" from-port="2" to-layer="1394" to-port="0"/>
		<edge from-layer="1393" from-port="0" to-layer="1394" to-port="1"/>
		<edge from-layer="1394" from-port="2" to-layer="1396" to-port="0"/>
		<edge from-layer="1395" from-port="0" to-layer="1396" to-port="1"/>
		<edge from-layer="1396" from-port="2" to-layer="1397" to-port="0"/>
		<edge from-layer="1397" from-port="1" to-layer="1426" to-port="0"/>
		<edge from-layer="1397" from-port="1" to-layer="1416" to-port="0"/>
		<edge from-layer="1397" from-port="1" to-layer="1398" to-port="0"/>
		<edge from-layer="1398" from-port="1" to-layer="1402" to-port="0"/>
		<edge from-layer="1399" from-port="0" to-layer="1402" to-port="1"/>
		<edge from-layer="1400" from-port="0" to-layer="1402" to-port="2"/>
		<edge from-layer="1401" from-port="0" to-layer="1402" to-port="3"/>
		<edge from-layer="1402" from-port="4" to-layer="1410" to-port="0"/>
		<edge from-layer="1403" from-port="1" to-layer="1404" to-port="0"/>
		<edge from-layer="1404" from-port="1" to-layer="1408" to-port="0"/>
		<edge from-layer="1405" from-port="0" to-layer="1408" to-port="1"/>
		<edge from-layer="1406" from-port="0" to-layer="1408" to-port="2"/>
		<edge from-layer="1407" from-port="0" to-layer="1408" to-port="3"/>
		<edge from-layer="1408" from-port="4" to-layer="1409" to-port="0"/>
		<edge from-layer="1409" from-port="1" to-layer="1410" to-port="1"/>
		<edge from-layer="1410" from-port="2" to-layer="1415" to-port="0"/>
		<edge from-layer="1410" from-port="2" to-layer="1414" to-port="0"/>
		<edge from-layer="1411" from-port="0" to-layer="1414" to-port="1"/>
		<edge from-layer="1412" from-port="0" to-layer="1414" to-port="2"/>
		<edge from-layer="1413" from-port="0" to-layer="1414" to-port="3"/>
		<edge from-layer="1414" from-port="4" to-layer="1426" to-port="1"/>
		<edge from-layer="1415" from-port="1" to-layer="1418" to-port="0"/>
		<edge from-layer="1416" from-port="1" to-layer="1417" to-port="0"/>
		<edge from-layer="1417" from-port="1" to-layer="1418" to-port="1"/>
		<edge from-layer="1418" from-port="2" to-layer="1420" to-port="0"/>
		<edge from-layer="1419" from-port="0" to-layer="1420" to-port="1"/>
		<edge from-layer="1420" from-port="2" to-layer="1424" to-port="0"/>
		<edge from-layer="1421" from-port="0" to-layer="1424" to-port="1"/>
		<edge from-layer="1422" from-port="0" to-layer="1424" to-port="2"/>
		<edge from-layer="1423" from-port="0" to-layer="1424" to-port="3"/>
		<edge from-layer="1424" from-port="4" to-layer="1426" to-port="2"/>
		<edge from-layer="1425" from-port="0" to-layer="1426" to-port="3"/>
		<edge from-layer="1426" from-port="4" to-layer="1427" to-port="0"/>
		<edge from-layer="1427" from-port="2" to-layer="1429" to-port="0"/>
		<edge from-layer="1428" from-port="0" to-layer="1429" to-port="1"/>
		<edge from-layer="1429" from-port="2" to-layer="1431" to-port="0"/>
		<edge from-layer="1430" from-port="0" to-layer="1431" to-port="1"/>
		<edge from-layer="1431" from-port="2" to-layer="1432" to-port="0"/>
		<edge from-layer="1432" from-port="1" to-layer="1433" to-port="0"/>
		<edge from-layer="1433" from-port="2" to-layer="1893" to-port="0"/>
		<edge from-layer="1433" from-port="2" to-layer="1462" to-port="0"/>
		<edge from-layer="1433" from-port="2" to-layer="1452" to-port="0"/>
		<edge from-layer="1433" from-port="2" to-layer="1434" to-port="0"/>
		<edge from-layer="1434" from-port="1" to-layer="1438" to-port="0"/>
		<edge from-layer="1435" from-port="0" to-layer="1438" to-port="1"/>
		<edge from-layer="1436" from-port="0" to-layer="1438" to-port="2"/>
		<edge from-layer="1437" from-port="0" to-layer="1438" to-port="3"/>
		<edge from-layer="1438" from-port="4" to-layer="1446" to-port="0"/>
		<edge from-layer="1439" from-port="1" to-layer="1440" to-port="0"/>
		<edge from-layer="1440" from-port="1" to-layer="1444" to-port="0"/>
		<edge from-layer="1441" from-port="0" to-layer="1444" to-port="1"/>
		<edge from-layer="1442" from-port="0" to-layer="1444" to-port="2"/>
		<edge from-layer="1443" from-port="0" to-layer="1444" to-port="3"/>
		<edge from-layer="1444" from-port="4" to-layer="1445" to-port="0"/>
		<edge from-layer="1445" from-port="1" to-layer="1446" to-port="1"/>
		<edge from-layer="1446" from-port="2" to-layer="1451" to-port="0"/>
		<edge from-layer="1446" from-port="2" to-layer="1450" to-port="0"/>
		<edge from-layer="1447" from-port="0" to-layer="1450" to-port="1"/>
		<edge from-layer="1448" from-port="0" to-layer="1450" to-port="2"/>
		<edge from-layer="1449" from-port="0" to-layer="1450" to-port="3"/>
		<edge from-layer="1450" from-port="4" to-layer="1462" to-port="1"/>
		<edge from-layer="1451" from-port="1" to-layer="1454" to-port="0"/>
		<edge from-layer="1452" from-port="1" to-layer="1453" to-port="0"/>
		<edge from-layer="1453" from-port="1" to-layer="1454" to-port="1"/>
		<edge from-layer="1454" from-port="2" to-layer="1456" to-port="0"/>
		<edge from-layer="1455" from-port="0" to-layer="1456" to-port="1"/>
		<edge from-layer="1456" from-port="2" to-layer="1460" to-port="0"/>
		<edge from-layer="1457" from-port="0" to-layer="1460" to-port="1"/>
		<edge from-layer="1458" from-port="0" to-layer="1460" to-port="2"/>
		<edge from-layer="1459" from-port="0" to-layer="1460" to-port="3"/>
		<edge from-layer="1460" from-port="4" to-layer="1462" to-port="2"/>
		<edge from-layer="1461" from-port="0" to-layer="1462" to-port="3"/>
		<edge from-layer="1462" from-port="4" to-layer="1463" to-port="0"/>
		<edge from-layer="1463" from-port="2" to-layer="1465" to-port="0"/>
		<edge from-layer="1464" from-port="0" to-layer="1465" to-port="1"/>
		<edge from-layer="1465" from-port="2" to-layer="1467" to-port="0"/>
		<edge from-layer="1466" from-port="0" to-layer="1467" to-port="1"/>
		<edge from-layer="1467" from-port="2" to-layer="1468" to-port="0"/>
		<edge from-layer="1468" from-port="1" to-layer="1470" to-port="0"/>
		<edge from-layer="1469" from-port="0" to-layer="1470" to-port="1"/>
		<edge from-layer="1470" from-port="2" to-layer="1472" to-port="0"/>
		<edge from-layer="1471" from-port="0" to-layer="1472" to-port="1"/>
		<edge from-layer="1472" from-port="2" to-layer="1473" to-port="0"/>
		<edge from-layer="1473" from-port="1" to-layer="1760" to-port="1"/>
		<edge from-layer="1473" from-port="1" to-layer="1475" to-port="0"/>
		<edge from-layer="1474" from-port="0" to-layer="1475" to-port="1"/>
		<edge from-layer="1475" from-port="2" to-layer="1477" to-port="0"/>
		<edge from-layer="1476" from-port="0" to-layer="1477" to-port="1"/>
		<edge from-layer="1477" from-port="2" to-layer="1478" to-port="0"/>
		<edge from-layer="1478" from-port="1" to-layer="1480" to-port="0"/>
		<edge from-layer="1479" from-port="0" to-layer="1480" to-port="1"/>
		<edge from-layer="1480" from-port="2" to-layer="1482" to-port="0"/>
		<edge from-layer="1481" from-port="0" to-layer="1482" to-port="1"/>
		<edge from-layer="1482" from-port="2" to-layer="1483" to-port="0"/>
		<edge from-layer="1483" from-port="1" to-layer="1484" to-port="0"/>
		<edge from-layer="1483" from-port="1" to-layer="1725" to-port="0"/>
		<edge from-layer="1483" from-port="1" to-layer="1749" to-port="1"/>
		<edge from-layer="1484" from-port="1" to-layer="1486" to-port="0"/>
		<edge from-layer="1485" from-port="0" to-layer="1486" to-port="1"/>
		<edge from-layer="1486" from-port="2" to-layer="1488" to-port="0"/>
		<edge from-layer="1487" from-port="0" to-layer="1488" to-port="1"/>
		<edge from-layer="1488" from-port="2" to-layer="1489" to-port="0"/>
		<edge from-layer="1489" from-port="1" to-layer="1491" to-port="0"/>
		<edge from-layer="1490" from-port="0" to-layer="1491" to-port="1"/>
		<edge from-layer="1491" from-port="2" to-layer="1493" to-port="0"/>
		<edge from-layer="1492" from-port="0" to-layer="1493" to-port="1"/>
		<edge from-layer="1493" from-port="2" to-layer="1494" to-port="0"/>
		<edge from-layer="1494" from-port="1" to-layer="1709" to-port="1"/>
		<edge from-layer="1494" from-port="1" to-layer="1685" to-port="0"/>
		<edge from-layer="1494" from-port="1" to-layer="1495" to-port="0"/>
		<edge from-layer="1495" from-port="1" to-layer="1497" to-port="0"/>
		<edge from-layer="1496" from-port="0" to-layer="1497" to-port="1"/>
		<edge from-layer="1497" from-port="2" to-layer="1499" to-port="0"/>
		<edge from-layer="1498" from-port="0" to-layer="1499" to-port="1"/>
		<edge from-layer="1499" from-port="2" to-layer="1500" to-port="0"/>
		<edge from-layer="1500" from-port="1" to-layer="1502" to-port="0"/>
		<edge from-layer="1501" from-port="0" to-layer="1502" to-port="1"/>
		<edge from-layer="1502" from-port="2" to-layer="1504" to-port="0"/>
		<edge from-layer="1503" from-port="0" to-layer="1504" to-port="1"/>
		<edge from-layer="1504" from-port="2" to-layer="1505" to-port="0"/>
		<edge from-layer="1505" from-port="1" to-layer="1645" to-port="0"/>
		<edge from-layer="1505" from-port="1" to-layer="1669" to-port="1"/>
		<edge from-layer="1505" from-port="1" to-layer="1506" to-port="0"/>
		<edge from-layer="1506" from-port="1" to-layer="1508" to-port="0"/>
		<edge from-layer="1507" from-port="0" to-layer="1508" to-port="1"/>
		<edge from-layer="1508" from-port="2" to-layer="1510" to-port="0"/>
		<edge from-layer="1509" from-port="0" to-layer="1510" to-port="1"/>
		<edge from-layer="1510" from-port="2" to-layer="1511" to-port="0"/>
		<edge from-layer="1511" from-port="1" to-layer="1513" to-port="0"/>
		<edge from-layer="1512" from-port="0" to-layer="1513" to-port="1"/>
		<edge from-layer="1513" from-port="2" to-layer="1515" to-port="0"/>
		<edge from-layer="1514" from-port="0" to-layer="1515" to-port="1"/>
		<edge from-layer="1515" from-port="2" to-layer="1516" to-port="0"/>
		<edge from-layer="1516" from-port="1" to-layer="1629" to-port="1"/>
		<edge from-layer="1516" from-port="1" to-layer="1605" to-port="0"/>
		<edge from-layer="1516" from-port="1" to-layer="1517" to-port="0"/>
		<edge from-layer="1517" from-port="1" to-layer="1519" to-port="0"/>
		<edge from-layer="1518" from-port="0" to-layer="1519" to-port="1"/>
		<edge from-layer="1519" from-port="2" to-layer="1521" to-port="0"/>
		<edge from-layer="1520" from-port="0" to-layer="1521" to-port="1"/>
		<edge from-layer="1521" from-port="2" to-layer="1522" to-port="0"/>
		<edge from-layer="1522" from-port="1" to-layer="1524" to-port="0"/>
		<edge from-layer="1523" from-port="0" to-layer="1524" to-port="1"/>
		<edge from-layer="1524" from-port="2" to-layer="1526" to-port="0"/>
		<edge from-layer="1525" from-port="0" to-layer="1526" to-port="1"/>
		<edge from-layer="1526" from-port="2" to-layer="1527" to-port="0"/>
		<edge from-layer="1527" from-port="1" to-layer="1565" to-port="0"/>
		<edge from-layer="1527" from-port="1" to-layer="1589" to-port="1"/>
		<edge from-layer="1527" from-port="1" to-layer="1528" to-port="0"/>
		<edge from-layer="1528" from-port="1" to-layer="1530" to-port="0"/>
		<edge from-layer="1529" from-port="0" to-layer="1530" to-port="1"/>
		<edge from-layer="1530" from-port="2" to-layer="1532" to-port="0"/>
		<edge from-layer="1531" from-port="0" to-layer="1532" to-port="1"/>
		<edge from-layer="1532" from-port="2" to-layer="1533" to-port="0"/>
		<edge from-layer="1533" from-port="1" to-layer="1535" to-port="0"/>
		<edge from-layer="1534" from-port="0" to-layer="1535" to-port="1"/>
		<edge from-layer="1535" from-port="2" to-layer="1537" to-port="0"/>
		<edge from-layer="1536" from-port="0" to-layer="1537" to-port="1"/>
		<edge from-layer="1537" from-port="2" to-layer="1538" to-port="0"/>
		<edge from-layer="1538" from-port="1" to-layer="1549" to-port="1"/>
		<edge from-layer="1538" from-port="1" to-layer="1540" to-port="0"/>
		<edge from-layer="1539" from-port="0" to-layer="1540" to-port="1"/>
		<edge from-layer="1540" from-port="2" to-layer="1542" to-port="0"/>
		<edge from-layer="1541" from-port="0" to-layer="1542" to-port="1"/>
		<edge from-layer="1542" from-port="2" to-layer="1543" to-port="0"/>
		<edge from-layer="1543" from-port="1" to-layer="1545" to-port="0"/>
		<edge from-layer="1544" from-port="0" to-layer="1545" to-port="1"/>
		<edge from-layer="1545" from-port="2" to-layer="1547" to-port="0"/>
		<edge from-layer="1546" from-port="0" to-layer="1547" to-port="1"/>
		<edge from-layer="1547" from-port="2" to-layer="1548" to-port="0"/>
		<edge from-layer="1548" from-port="1" to-layer="1549" to-port="0"/>
		<edge from-layer="1549" from-port="2" to-layer="1551" to-port="0"/>
		<edge from-layer="1550" from-port="0" to-layer="1551" to-port="1"/>
		<edge from-layer="1551" from-port="2" to-layer="1553" to-port="0"/>
		<edge from-layer="1552" from-port="0" to-layer="1553" to-port="1"/>
		<edge from-layer="1553" from-port="2" to-layer="1554" to-port="0"/>
		<edge from-layer="1554" from-port="1" to-layer="1556" to-port="0"/>
		<edge from-layer="1555" from-port="0" to-layer="1556" to-port="1"/>
		<edge from-layer="1556" from-port="2" to-layer="1558" to-port="0"/>
		<edge from-layer="1557" from-port="0" to-layer="1558" to-port="1"/>
		<edge from-layer="1558" from-port="2" to-layer="1559" to-port="0"/>
		<edge from-layer="1559" from-port="1" to-layer="1588" to-port="0"/>
		<edge from-layer="1559" from-port="1" to-layer="1578" to-port="0"/>
		<edge from-layer="1559" from-port="1" to-layer="1560" to-port="0"/>
		<edge from-layer="1560" from-port="1" to-layer="1564" to-port="0"/>
		<edge from-layer="1561" from-port="0" to-layer="1564" to-port="1"/>
		<edge from-layer="1562" from-port="0" to-layer="1564" to-port="2"/>
		<edge from-layer="1563" from-port="0" to-layer="1564" to-port="3"/>
		<edge from-layer="1564" from-port="4" to-layer="1572" to-port="0"/>
		<edge from-layer="1565" from-port="1" to-layer="1566" to-port="0"/>
		<edge from-layer="1566" from-port="1" to-layer="1570" to-port="0"/>
		<edge from-layer="1567" from-port="0" to-layer="1570" to-port="1"/>
		<edge from-layer="1568" from-port="0" to-layer="1570" to-port="2"/>
		<edge from-layer="1569" from-port="0" to-layer="1570" to-port="3"/>
		<edge from-layer="1570" from-port="4" to-layer="1571" to-port="0"/>
		<edge from-layer="1571" from-port="1" to-layer="1572" to-port="1"/>
		<edge from-layer="1572" from-port="2" to-layer="1576" to-port="0"/>
		<edge from-layer="1572" from-port="2" to-layer="1577" to-port="0"/>
		<edge from-layer="1573" from-port="0" to-layer="1576" to-port="1"/>
		<edge from-layer="1574" from-port="0" to-layer="1576" to-port="2"/>
		<edge from-layer="1575" from-port="0" to-layer="1576" to-port="3"/>
		<edge from-layer="1576" from-port="4" to-layer="1588" to-port="1"/>
		<edge from-layer="1577" from-port="1" to-layer="1580" to-port="0"/>
		<edge from-layer="1578" from-port="1" to-layer="1579" to-port="0"/>
		<edge from-layer="1579" from-port="1" to-layer="1580" to-port="1"/>
		<edge from-layer="1580" from-port="2" to-layer="1582" to-port="0"/>
		<edge from-layer="1581" from-port="0" to-layer="1582" to-port="1"/>
		<edge from-layer="1582" from-port="2" to-layer="1586" to-port="0"/>
		<edge from-layer="1583" from-port="0" to-layer="1586" to-port="1"/>
		<edge from-layer="1584" from-port="0" to-layer="1586" to-port="2"/>
		<edge from-layer="1585" from-port="0" to-layer="1586" to-port="3"/>
		<edge from-layer="1586" from-port="4" to-layer="1588" to-port="2"/>
		<edge from-layer="1587" from-port="0" to-layer="1588" to-port="3"/>
		<edge from-layer="1588" from-port="4" to-layer="1589" to-port="0"/>
		<edge from-layer="1589" from-port="2" to-layer="1591" to-port="0"/>
		<edge from-layer="1590" from-port="0" to-layer="1591" to-port="1"/>
		<edge from-layer="1591" from-port="2" to-layer="1593" to-port="0"/>
		<edge from-layer="1592" from-port="0" to-layer="1593" to-port="1"/>
		<edge from-layer="1593" from-port="2" to-layer="1594" to-port="0"/>
		<edge from-layer="1594" from-port="1" to-layer="1596" to-port="0"/>
		<edge from-layer="1595" from-port="0" to-layer="1596" to-port="1"/>
		<edge from-layer="1596" from-port="2" to-layer="1598" to-port="0"/>
		<edge from-layer="1597" from-port="0" to-layer="1598" to-port="1"/>
		<edge from-layer="1598" from-port="2" to-layer="1599" to-port="0"/>
		<edge from-layer="1599" from-port="1" to-layer="1618" to-port="0"/>
		<edge from-layer="1599" from-port="1" to-layer="1628" to-port="0"/>
		<edge from-layer="1599" from-port="1" to-layer="1600" to-port="0"/>
		<edge from-layer="1600" from-port="1" to-layer="1604" to-port="0"/>
		<edge from-layer="1601" from-port="0" to-layer="1604" to-port="1"/>
		<edge from-layer="1602" from-port="0" to-layer="1604" to-port="2"/>
		<edge from-layer="1603" from-port="0" to-layer="1604" to-port="3"/>
		<edge from-layer="1604" from-port="4" to-layer="1612" to-port="0"/>
		<edge from-layer="1605" from-port="1" to-layer="1606" to-port="0"/>
		<edge from-layer="1606" from-port="1" to-layer="1610" to-port="0"/>
		<edge from-layer="1607" from-port="0" to-layer="1610" to-port="1"/>
		<edge from-layer="1608" from-port="0" to-layer="1610" to-port="2"/>
		<edge from-layer="1609" from-port="0" to-layer="1610" to-port="3"/>
		<edge from-layer="1610" from-port="4" to-layer="1611" to-port="0"/>
		<edge from-layer="1611" from-port="1" to-layer="1612" to-port="1"/>
		<edge from-layer="1612" from-port="2" to-layer="1617" to-port="0"/>
		<edge from-layer="1612" from-port="2" to-layer="1616" to-port="0"/>
		<edge from-layer="1613" from-port="0" to-layer="1616" to-port="1"/>
		<edge from-layer="1614" from-port="0" to-layer="1616" to-port="2"/>
		<edge from-layer="1615" from-port="0" to-layer="1616" to-port="3"/>
		<edge from-layer="1616" from-port="4" to-layer="1628" to-port="1"/>
		<edge from-layer="1617" from-port="1" to-layer="1620" to-port="0"/>
		<edge from-layer="1618" from-port="1" to-layer="1619" to-port="0"/>
		<edge from-layer="1619" from-port="1" to-layer="1620" to-port="1"/>
		<edge from-layer="1620" from-port="2" to-layer="1622" to-port="0"/>
		<edge from-layer="1621" from-port="0" to-layer="1622" to-port="1"/>
		<edge from-layer="1622" from-port="2" to-layer="1626" to-port="0"/>
		<edge from-layer="1623" from-port="0" to-layer="1626" to-port="1"/>
		<edge from-layer="1624" from-port="0" to-layer="1626" to-port="2"/>
		<edge from-layer="1625" from-port="0" to-layer="1626" to-port="3"/>
		<edge from-layer="1626" from-port="4" to-layer="1628" to-port="2"/>
		<edge from-layer="1627" from-port="0" to-layer="1628" to-port="3"/>
		<edge from-layer="1628" from-port="4" to-layer="1629" to-port="0"/>
		<edge from-layer="1629" from-port="2" to-layer="1631" to-port="0"/>
		<edge from-layer="1630" from-port="0" to-layer="1631" to-port="1"/>
		<edge from-layer="1631" from-port="2" to-layer="1633" to-port="0"/>
		<edge from-layer="1632" from-port="0" to-layer="1633" to-port="1"/>
		<edge from-layer="1633" from-port="2" to-layer="1634" to-port="0"/>
		<edge from-layer="1634" from-port="1" to-layer="1636" to-port="0"/>
		<edge from-layer="1635" from-port="0" to-layer="1636" to-port="1"/>
		<edge from-layer="1636" from-port="2" to-layer="1638" to-port="0"/>
		<edge from-layer="1637" from-port="0" to-layer="1638" to-port="1"/>
		<edge from-layer="1638" from-port="2" to-layer="1639" to-port="0"/>
		<edge from-layer="1639" from-port="1" to-layer="1640" to-port="0"/>
		<edge from-layer="1639" from-port="1" to-layer="1658" to-port="0"/>
		<edge from-layer="1639" from-port="1" to-layer="1668" to-port="0"/>
		<edge from-layer="1640" from-port="1" to-layer="1644" to-port="0"/>
		<edge from-layer="1641" from-port="0" to-layer="1644" to-port="1"/>
		<edge from-layer="1642" from-port="0" to-layer="1644" to-port="2"/>
		<edge from-layer="1643" from-port="0" to-layer="1644" to-port="3"/>
		<edge from-layer="1644" from-port="4" to-layer="1652" to-port="0"/>
		<edge from-layer="1645" from-port="1" to-layer="1646" to-port="0"/>
		<edge from-layer="1646" from-port="1" to-layer="1650" to-port="0"/>
		<edge from-layer="1647" from-port="0" to-layer="1650" to-port="1"/>
		<edge from-layer="1648" from-port="0" to-layer="1650" to-port="2"/>
		<edge from-layer="1649" from-port="0" to-layer="1650" to-port="3"/>
		<edge from-layer="1650" from-port="4" to-layer="1651" to-port="0"/>
		<edge from-layer="1651" from-port="1" to-layer="1652" to-port="1"/>
		<edge from-layer="1652" from-port="2" to-layer="1657" to-port="0"/>
		<edge from-layer="1652" from-port="2" to-layer="1656" to-port="0"/>
		<edge from-layer="1653" from-port="0" to-layer="1656" to-port="1"/>
		<edge from-layer="1654" from-port="0" to-layer="1656" to-port="2"/>
		<edge from-layer="1655" from-port="0" to-layer="1656" to-port="3"/>
		<edge from-layer="1656" from-port="4" to-layer="1668" to-port="1"/>
		<edge from-layer="1657" from-port="1" to-layer="1660" to-port="0"/>
		<edge from-layer="1658" from-port="1" to-layer="1659" to-port="0"/>
		<edge from-layer="1659" from-port="1" to-layer="1660" to-port="1"/>
		<edge from-layer="1660" from-port="2" to-layer="1662" to-port="0"/>
		<edge from-layer="1661" from-port="0" to-layer="1662" to-port="1"/>
		<edge from-layer="1662" from-port="2" to-layer="1666" to-port="0"/>
		<edge from-layer="1663" from-port="0" to-layer="1666" to-port="1"/>
		<edge from-layer="1664" from-port="0" to-layer="1666" to-port="2"/>
		<edge from-layer="1665" from-port="0" to-layer="1666" to-port="3"/>
		<edge from-layer="1666" from-port="4" to-layer="1668" to-port="2"/>
		<edge from-layer="1667" from-port="0" to-layer="1668" to-port="3"/>
		<edge from-layer="1668" from-port="4" to-layer="1669" to-port="0"/>
		<edge from-layer="1669" from-port="2" to-layer="1671" to-port="0"/>
		<edge from-layer="1670" from-port="0" to-layer="1671" to-port="1"/>
		<edge from-layer="1671" from-port="2" to-layer="1673" to-port="0"/>
		<edge from-layer="1672" from-port="0" to-layer="1673" to-port="1"/>
		<edge from-layer="1673" from-port="2" to-layer="1674" to-port="0"/>
		<edge from-layer="1674" from-port="1" to-layer="1676" to-port="0"/>
		<edge from-layer="1675" from-port="0" to-layer="1676" to-port="1"/>
		<edge from-layer="1676" from-port="2" to-layer="1678" to-port="0"/>
		<edge from-layer="1677" from-port="0" to-layer="1678" to-port="1"/>
		<edge from-layer="1678" from-port="2" to-layer="1679" to-port="0"/>
		<edge from-layer="1679" from-port="1" to-layer="1680" to-port="0"/>
		<edge from-layer="1679" from-port="1" to-layer="1708" to-port="0"/>
		<edge from-layer="1679" from-port="1" to-layer="1698" to-port="0"/>
		<edge from-layer="1680" from-port="1" to-layer="1684" to-port="0"/>
		<edge from-layer="1681" from-port="0" to-layer="1684" to-port="1"/>
		<edge from-layer="1682" from-port="0" to-layer="1684" to-port="2"/>
		<edge from-layer="1683" from-port="0" to-layer="1684" to-port="3"/>
		<edge from-layer="1684" from-port="4" to-layer="1692" to-port="0"/>
		<edge from-layer="1685" from-port="1" to-layer="1686" to-port="0"/>
		<edge from-layer="1686" from-port="1" to-layer="1690" to-port="0"/>
		<edge from-layer="1687" from-port="0" to-layer="1690" to-port="1"/>
		<edge from-layer="1688" from-port="0" to-layer="1690" to-port="2"/>
		<edge from-layer="1689" from-port="0" to-layer="1690" to-port="3"/>
		<edge from-layer="1690" from-port="4" to-layer="1691" to-port="0"/>
		<edge from-layer="1691" from-port="1" to-layer="1692" to-port="1"/>
		<edge from-layer="1692" from-port="2" to-layer="1696" to-port="0"/>
		<edge from-layer="1692" from-port="2" to-layer="1697" to-port="0"/>
		<edge from-layer="1693" from-port="0" to-layer="1696" to-port="1"/>
		<edge from-layer="1694" from-port="0" to-layer="1696" to-port="2"/>
		<edge from-layer="1695" from-port="0" to-layer="1696" to-port="3"/>
		<edge from-layer="1696" from-port="4" to-layer="1708" to-port="1"/>
		<edge from-layer="1697" from-port="1" to-layer="1700" to-port="0"/>
		<edge from-layer="1698" from-port="1" to-layer="1699" to-port="0"/>
		<edge from-layer="1699" from-port="1" to-layer="1700" to-port="1"/>
		<edge from-layer="1700" from-port="2" to-layer="1702" to-port="0"/>
		<edge from-layer="1701" from-port="0" to-layer="1702" to-port="1"/>
		<edge from-layer="1702" from-port="2" to-layer="1706" to-port="0"/>
		<edge from-layer="1703" from-port="0" to-layer="1706" to-port="1"/>
		<edge from-layer="1704" from-port="0" to-layer="1706" to-port="2"/>
		<edge from-layer="1705" from-port="0" to-layer="1706" to-port="3"/>
		<edge from-layer="1706" from-port="4" to-layer="1708" to-port="2"/>
		<edge from-layer="1707" from-port="0" to-layer="1708" to-port="3"/>
		<edge from-layer="1708" from-port="4" to-layer="1709" to-port="0"/>
		<edge from-layer="1709" from-port="2" to-layer="1711" to-port="0"/>
		<edge from-layer="1710" from-port="0" to-layer="1711" to-port="1"/>
		<edge from-layer="1711" from-port="2" to-layer="1713" to-port="0"/>
		<edge from-layer="1712" from-port="0" to-layer="1713" to-port="1"/>
		<edge from-layer="1713" from-port="2" to-layer="1714" to-port="0"/>
		<edge from-layer="1714" from-port="1" to-layer="1716" to-port="0"/>
		<edge from-layer="1715" from-port="0" to-layer="1716" to-port="1"/>
		<edge from-layer="1716" from-port="2" to-layer="1718" to-port="0"/>
		<edge from-layer="1717" from-port="0" to-layer="1718" to-port="1"/>
		<edge from-layer="1718" from-port="2" to-layer="1719" to-port="0"/>
		<edge from-layer="1719" from-port="1" to-layer="1720" to-port="0"/>
		<edge from-layer="1719" from-port="1" to-layer="1748" to-port="0"/>
		<edge from-layer="1719" from-port="1" to-layer="1738" to-port="0"/>
		<edge from-layer="1720" from-port="1" to-layer="1724" to-port="0"/>
		<edge from-layer="1721" from-port="0" to-layer="1724" to-port="1"/>
		<edge from-layer="1722" from-port="0" to-layer="1724" to-port="2"/>
		<edge from-layer="1723" from-port="0" to-layer="1724" to-port="3"/>
		<edge from-layer="1724" from-port="4" to-layer="1732" to-port="0"/>
		<edge from-layer="1725" from-port="1" to-layer="1726" to-port="0"/>
		<edge from-layer="1726" from-port="1" to-layer="1730" to-port="0"/>
		<edge from-layer="1727" from-port="0" to-layer="1730" to-port="1"/>
		<edge from-layer="1728" from-port="0" to-layer="1730" to-port="2"/>
		<edge from-layer="1729" from-port="0" to-layer="1730" to-port="3"/>
		<edge from-layer="1730" from-port="4" to-layer="1731" to-port="0"/>
		<edge from-layer="1731" from-port="1" to-layer="1732" to-port="1"/>
		<edge from-layer="1732" from-port="2" to-layer="1736" to-port="0"/>
		<edge from-layer="1732" from-port="2" to-layer="1737" to-port="0"/>
		<edge from-layer="1733" from-port="0" to-layer="1736" to-port="1"/>
		<edge from-layer="1734" from-port="0" to-layer="1736" to-port="2"/>
		<edge from-layer="1735" from-port="0" to-layer="1736" to-port="3"/>
		<edge from-layer="1736" from-port="4" to-layer="1748" to-port="1"/>
		<edge from-layer="1737" from-port="1" to-layer="1740" to-port="0"/>
		<edge from-layer="1738" from-port="1" to-layer="1739" to-port="0"/>
		<edge from-layer="1739" from-port="1" to-layer="1740" to-port="1"/>
		<edge from-layer="1740" from-port="2" to-layer="1742" to-port="0"/>
		<edge from-layer="1741" from-port="0" to-layer="1742" to-port="1"/>
		<edge from-layer="1742" from-port="2" to-layer="1746" to-port="0"/>
		<edge from-layer="1743" from-port="0" to-layer="1746" to-port="1"/>
		<edge from-layer="1744" from-port="0" to-layer="1746" to-port="2"/>
		<edge from-layer="1745" from-port="0" to-layer="1746" to-port="3"/>
		<edge from-layer="1746" from-port="4" to-layer="1748" to-port="2"/>
		<edge from-layer="1747" from-port="0" to-layer="1748" to-port="3"/>
		<edge from-layer="1748" from-port="4" to-layer="1749" to-port="0"/>
		<edge from-layer="1749" from-port="2" to-layer="1751" to-port="0"/>
		<edge from-layer="1750" from-port="0" to-layer="1751" to-port="1"/>
		<edge from-layer="1751" from-port="2" to-layer="1753" to-port="0"/>
		<edge from-layer="1752" from-port="0" to-layer="1753" to-port="1"/>
		<edge from-layer="1753" from-port="2" to-layer="1754" to-port="0"/>
		<edge from-layer="1754" from-port="1" to-layer="1756" to-port="0"/>
		<edge from-layer="1755" from-port="0" to-layer="1756" to-port="1"/>
		<edge from-layer="1756" from-port="2" to-layer="1758" to-port="0"/>
		<edge from-layer="1757" from-port="0" to-layer="1758" to-port="1"/>
		<edge from-layer="1758" from-port="2" to-layer="1759" to-port="0"/>
		<edge from-layer="1759" from-port="1" to-layer="1760" to-port="0"/>
		<edge from-layer="1760" from-port="2" to-layer="1762" to-port="0"/>
		<edge from-layer="1761" from-port="0" to-layer="1762" to-port="1"/>
		<edge from-layer="1762" from-port="2" to-layer="1764" to-port="0"/>
		<edge from-layer="1763" from-port="0" to-layer="1764" to-port="1"/>
		<edge from-layer="1764" from-port="2" to-layer="1799" to-port="0"/>
		<edge from-layer="1764" from-port="2" to-layer="1833" to-port="0"/>
		<edge from-layer="1764" from-port="2" to-layer="1927" to-port="0"/>
		<edge from-layer="1764" from-port="2" to-layer="1926" to-port="0"/>
		<edge from-layer="1764" from-port="2" to-layer="1901" to-port="0"/>
		<edge from-layer="1764" from-port="2" to-layer="1867" to-port="0"/>
		<edge from-layer="1764" from-port="2" to-layer="1765" to-port="0"/>
		<edge from-layer="1765" from-port="1" to-layer="1766" to-port="0"/>
		<edge from-layer="1766" from-port="1" to-layer="1770" to-port="0"/>
		<edge from-layer="1767" from-port="0" to-layer="1770" to-port="1"/>
		<edge from-layer="1768" from-port="0" to-layer="1770" to-port="2"/>
		<edge from-layer="1769" from-port="0" to-layer="1770" to-port="3"/>
		<edge from-layer="1770" from-port="4" to-layer="1771" to-port="0"/>
		<edge from-layer="1771" from-port="1" to-layer="1772" to-port="1"/>
		<edge from-layer="1772" from-port="2" to-layer="1777" to-port="0"/>
		<edge from-layer="1772" from-port="2" to-layer="1776" to-port="0"/>
		<edge from-layer="1773" from-port="0" to-layer="1776" to-port="1"/>
		<edge from-layer="1774" from-port="0" to-layer="1776" to-port="2"/>
		<edge from-layer="1775" from-port="0" to-layer="1776" to-port="3"/>
		<edge from-layer="1776" from-port="4" to-layer="1788" to-port="1"/>
		<edge from-layer="1777" from-port="1" to-layer="1780" to-port="0"/>
		<edge from-layer="1778" from-port="1" to-layer="1779" to-port="0"/>
		<edge from-layer="1779" from-port="1" to-layer="1780" to-port="1"/>
		<edge from-layer="1780" from-port="2" to-layer="1782" to-port="0"/>
		<edge from-layer="1781" from-port="0" to-layer="1782" to-port="1"/>
		<edge from-layer="1782" from-port="2" to-layer="1786" to-port="0"/>
		<edge from-layer="1783" from-port="0" to-layer="1786" to-port="1"/>
		<edge from-layer="1784" from-port="0" to-layer="1786" to-port="2"/>
		<edge from-layer="1785" from-port="0" to-layer="1786" to-port="3"/>
		<edge from-layer="1786" from-port="4" to-layer="1788" to-port="2"/>
		<edge from-layer="1787" from-port="0" to-layer="1788" to-port="3"/>
		<edge from-layer="1788" from-port="4" to-layer="1789" to-port="0"/>
		<edge from-layer="1788" from-port="4" to-layer="1927" to-port="5"/>
		<edge from-layer="1790" from-port="0" to-layer="1791" to-port="1"/>
		<edge from-layer="1791" from-port="2" to-layer="1793" to-port="0"/>
		<edge from-layer="1792" from-port="0" to-layer="1793" to-port="1"/>
		<edge from-layer="1793" from-port="2" to-layer="1812" to-port="0"/>
		<edge from-layer="1793" from-port="2" to-layer="1822" to-port="0"/>
		<edge from-layer="1793" from-port="2" to-layer="1794" to-port="0"/>
		<edge from-layer="1794" from-port="1" to-layer="1798" to-port="0"/>
		<edge from-layer="1795" from-port="0" to-layer="1798" to-port="1"/>
		<edge from-layer="1796" from-port="0" to-layer="1798" to-port="2"/>
		<edge from-layer="1797" from-port="0" to-layer="1798" to-port="3"/>
		<edge from-layer="1798" from-port="4" to-layer="1806" to-port="0"/>
		<edge from-layer="1799" from-port="1" to-layer="1800" to-port="0"/>
		<edge from-layer="1800" from-port="1" to-layer="1804" to-port="0"/>
		<edge from-layer="1801" from-port="0" to-layer="1804" to-port="1"/>
		<edge from-layer="1802" from-port="0" to-layer="1804" to-port="2"/>
		<edge from-layer="1803" from-port="0" to-layer="1804" to-port="3"/>
		<edge from-layer="1804" from-port="4" to-layer="1805" to-port="0"/>
		<edge from-layer="1805" from-port="1" to-layer="1806" to-port="1"/>
		<edge from-layer="1806" from-port="2" to-layer="1810" to-port="0"/>
		<edge from-layer="1806" from-port="2" to-layer="1811" to-port="0"/>
		<edge from-layer="1807" from-port="0" to-layer="1810" to-port="1"/>
		<edge from-layer="1808" from-port="0" to-layer="1810" to-port="2"/>
		<edge from-layer="1809" from-port="0" to-layer="1810" to-port="3"/>
		<edge from-layer="1810" from-port="4" to-layer="1822" to-port="1"/>
		<edge from-layer="1811" from-port="1" to-layer="1814" to-port="0"/>
		<edge from-layer="1812" from-port="1" to-layer="1813" to-port="0"/>
		<edge from-layer="1813" from-port="1" to-layer="1814" to-port="1"/>
		<edge from-layer="1814" from-port="2" to-layer="1816" to-port="0"/>
		<edge from-layer="1815" from-port="0" to-layer="1816" to-port="1"/>
		<edge from-layer="1816" from-port="2" to-layer="1820" to-port="0"/>
		<edge from-layer="1817" from-port="0" to-layer="1820" to-port="1"/>
		<edge from-layer="1818" from-port="0" to-layer="1820" to-port="2"/>
		<edge from-layer="1819" from-port="0" to-layer="1820" to-port="3"/>
		<edge from-layer="1820" from-port="4" to-layer="1822" to-port="2"/>
		<edge from-layer="1821" from-port="0" to-layer="1822" to-port="3"/>
		<edge from-layer="1822" from-port="4" to-layer="1927" to-port="4"/>
		<edge from-layer="1822" from-port="4" to-layer="1823" to-port="0"/>
		<edge from-layer="1824" from-port="0" to-layer="1825" to-port="1"/>
		<edge from-layer="1825" from-port="2" to-layer="1827" to-port="0"/>
		<edge from-layer="1826" from-port="0" to-layer="1827" to-port="1"/>
		<edge from-layer="1827" from-port="2" to-layer="1828" to-port="0"/>
		<edge from-layer="1827" from-port="2" to-layer="1856" to-port="0"/>
		<edge from-layer="1827" from-port="2" to-layer="1846" to-port="0"/>
		<edge from-layer="1828" from-port="1" to-layer="1832" to-port="0"/>
		<edge from-layer="1829" from-port="0" to-layer="1832" to-port="1"/>
		<edge from-layer="1830" from-port="0" to-layer="1832" to-port="2"/>
		<edge from-layer="1831" from-port="0" to-layer="1832" to-port="3"/>
		<edge from-layer="1832" from-port="4" to-layer="1840" to-port="0"/>
		<edge from-layer="1833" from-port="1" to-layer="1834" to-port="0"/>
		<edge from-layer="1834" from-port="1" to-layer="1838" to-port="0"/>
		<edge from-layer="1835" from-port="0" to-layer="1838" to-port="1"/>
		<edge from-layer="1836" from-port="0" to-layer="1838" to-port="2"/>
		<edge from-layer="1837" from-port="0" to-layer="1838" to-port="3"/>
		<edge from-layer="1838" from-port="4" to-layer="1839" to-port="0"/>
		<edge from-layer="1839" from-port="1" to-layer="1840" to-port="1"/>
		<edge from-layer="1840" from-port="2" to-layer="1845" to-port="0"/>
		<edge from-layer="1840" from-port="2" to-layer="1844" to-port="0"/>
		<edge from-layer="1841" from-port="0" to-layer="1844" to-port="1"/>
		<edge from-layer="1842" from-port="0" to-layer="1844" to-port="2"/>
		<edge from-layer="1843" from-port="0" to-layer="1844" to-port="3"/>
		<edge from-layer="1844" from-port="4" to-layer="1856" to-port="1"/>
		<edge from-layer="1845" from-port="1" to-layer="1848" to-port="0"/>
		<edge from-layer="1846" from-port="1" to-layer="1847" to-port="0"/>
		<edge from-layer="1847" from-port="1" to-layer="1848" to-port="1"/>
		<edge from-layer="1848" from-port="2" to-layer="1850" to-port="0"/>
		<edge from-layer="1849" from-port="0" to-layer="1850" to-port="1"/>
		<edge from-layer="1850" from-port="2" to-layer="1854" to-port="0"/>
		<edge from-layer="1851" from-port="0" to-layer="1854" to-port="1"/>
		<edge from-layer="1852" from-port="0" to-layer="1854" to-port="2"/>
		<edge from-layer="1853" from-port="0" to-layer="1854" to-port="3"/>
		<edge from-layer="1854" from-port="4" to-layer="1856" to-port="2"/>
		<edge from-layer="1855" from-port="0" to-layer="1856" to-port="3"/>
		<edge from-layer="1856" from-port="4" to-layer="1857" to-port="0"/>
		<edge from-layer="1856" from-port="4" to-layer="1927" to-port="3"/>
		<edge from-layer="1858" from-port="0" to-layer="1859" to-port="1"/>
		<edge from-layer="1859" from-port="2" to-layer="1861" to-port="0"/>
		<edge from-layer="1860" from-port="0" to-layer="1861" to-port="1"/>
		<edge from-layer="1861" from-port="2" to-layer="1890" to-port="0"/>
		<edge from-layer="1861" from-port="2" to-layer="1862" to-port="0"/>
		<edge from-layer="1861" from-port="2" to-layer="1880" to-port="0"/>
		<edge from-layer="1862" from-port="1" to-layer="1866" to-port="0"/>
		<edge from-layer="1863" from-port="0" to-layer="1866" to-port="1"/>
		<edge from-layer="1864" from-port="0" to-layer="1866" to-port="2"/>
		<edge from-layer="1865" from-port="0" to-layer="1866" to-port="3"/>
		<edge from-layer="1866" from-port="4" to-layer="1874" to-port="0"/>
		<edge from-layer="1867" from-port="1" to-layer="1868" to-port="0"/>
		<edge from-layer="1868" from-port="1" to-layer="1872" to-port="0"/>
		<edge from-layer="1869" from-port="0" to-layer="1872" to-port="1"/>
		<edge from-layer="1870" from-port="0" to-layer="1872" to-port="2"/>
		<edge from-layer="1871" from-port="0" to-layer="1872" to-port="3"/>
		<edge from-layer="1872" from-port="4" to-layer="1873" to-port="0"/>
		<edge from-layer="1873" from-port="1" to-layer="1874" to-port="1"/>
		<edge from-layer="1874" from-port="2" to-layer="1879" to-port="0"/>
		<edge from-layer="1874" from-port="2" to-layer="1878" to-port="0"/>
		<edge from-layer="1875" from-port="0" to-layer="1878" to-port="1"/>
		<edge from-layer="1876" from-port="0" to-layer="1878" to-port="2"/>
		<edge from-layer="1877" from-port="0" to-layer="1878" to-port="3"/>
		<edge from-layer="1878" from-port="4" to-layer="1890" to-port="1"/>
		<edge from-layer="1879" from-port="1" to-layer="1882" to-port="0"/>
		<edge from-layer="1880" from-port="1" to-layer="1881" to-port="0"/>
		<edge from-layer="1881" from-port="1" to-layer="1882" to-port="1"/>
		<edge from-layer="1882" from-port="2" to-layer="1884" to-port="0"/>
		<edge from-layer="1883" from-port="0" to-layer="1884" to-port="1"/>
		<edge from-layer="1884" from-port="2" to-layer="1888" to-port="0"/>
		<edge from-layer="1885" from-port="0" to-layer="1888" to-port="1"/>
		<edge from-layer="1886" from-port="0" to-layer="1888" to-port="2"/>
		<edge from-layer="1887" from-port="0" to-layer="1888" to-port="3"/>
		<edge from-layer="1888" from-port="4" to-layer="1890" to-port="2"/>
		<edge from-layer="1889" from-port="0" to-layer="1890" to-port="3"/>
		<edge from-layer="1890" from-port="4" to-layer="1927" to-port="2"/>
		<edge from-layer="1890" from-port="4" to-layer="1891" to-port="0"/>
		<edge from-layer="1892" from-port="0" to-layer="1893" to-port="1"/>
		<edge from-layer="1893" from-port="2" to-layer="1895" to-port="0"/>
		<edge from-layer="1894" from-port="0" to-layer="1895" to-port="1"/>
		<edge from-layer="1895" from-port="2" to-layer="1924" to-port="0"/>
		<edge from-layer="1895" from-port="2" to-layer="1914" to-port="0"/>
		<edge from-layer="1895" from-port="2" to-layer="1896" to-port="0"/>
		<edge from-layer="1896" from-port="1" to-layer="1900" to-port="0"/>
		<edge from-layer="1897" from-port="0" to-layer="1900" to-port="1"/>
		<edge from-layer="1898" from-port="0" to-layer="1900" to-port="2"/>
		<edge from-layer="1899" from-port="0" to-layer="1900" to-port="3"/>
		<edge from-layer="1900" from-port="4" to-layer="1908" to-port="0"/>
		<edge from-layer="1901" from-port="1" to-layer="1902" to-port="0"/>
		<edge from-layer="1902" from-port="1" to-layer="1906" to-port="0"/>
		<edge from-layer="1903" from-port="0" to-layer="1906" to-port="1"/>
		<edge from-layer="1904" from-port="0" to-layer="1906" to-port="2"/>
		<edge from-layer="1905" from-port="0" to-layer="1906" to-port="3"/>
		<edge from-layer="1906" from-port="4" to-layer="1907" to-port="0"/>
		<edge from-layer="1907" from-port="1" to-layer="1908" to-port="1"/>
		<edge from-layer="1908" from-port="2" to-layer="1913" to-port="0"/>
		<edge from-layer="1908" from-port="2" to-layer="1912" to-port="0"/>
		<edge from-layer="1909" from-port="0" to-layer="1912" to-port="1"/>
		<edge from-layer="1910" from-port="0" to-layer="1912" to-port="2"/>
		<edge from-layer="1911" from-port="0" to-layer="1912" to-port="3"/>
		<edge from-layer="1912" from-port="4" to-layer="1924" to-port="1"/>
		<edge from-layer="1913" from-port="1" to-layer="1916" to-port="0"/>
		<edge from-layer="1914" from-port="1" to-layer="1915" to-port="0"/>
		<edge from-layer="1915" from-port="1" to-layer="1916" to-port="1"/>
		<edge from-layer="1916" from-port="2" to-layer="1918" to-port="0"/>
		<edge from-layer="1917" from-port="0" to-layer="1918" to-port="1"/>
		<edge from-layer="1918" from-port="2" to-layer="1922" to-port="0"/>
		<edge from-layer="1919" from-port="0" to-layer="1922" to-port="1"/>
		<edge from-layer="1920" from-port="0" to-layer="1922" to-port="2"/>
		<edge from-layer="1921" from-port="0" to-layer="1922" to-port="3"/>
		<edge from-layer="1922" from-port="4" to-layer="1924" to-port="2"/>
		<edge from-layer="1923" from-port="0" to-layer="1924" to-port="3"/>
		<edge from-layer="1924" from-port="4" to-layer="1927" to-port="1"/>
		<edge from-layer="1924" from-port="4" to-layer="1925" to-port="0"/>
		<edge from-layer="1927" from-port="6" to-layer="1929" to-port="0"/>
		<edge from-layer="1928" from-port="0" to-layer="1929" to-port="1"/>
		<edge from-layer="1929" from-port="2" to-layer="1931" to-port="0"/>
		<edge from-layer="1930" from-port="0" to-layer="1931" to-port="1"/>
		<edge from-layer="1931" from-port="2" to-layer="1932" to-port="0"/>
	</edges>
	<meta_data>
		<MO_version value="2021.4.0-3839-cd81789d294-releases/2021/4"/>
		<cli_parameters>
			<caffe_parser_path value="DIR"/>
			<data_type value="FP32"/>
			<disable_nhwc_to_nchw value="False"/>
			<disable_omitting_optional value="False"/>
			<disable_resnet_optimization value="False"/>
			<disable_weights_compression value="False"/>
			<enable_concat_optimization value="False"/>
			<enable_flattening_nested_params value="False"/>
			<enable_ssd_gluoncv value="False"/>
			<extensions value="DIR"/>
			<framework value="onnx"/>
			<freeze_placeholder_with_value value="{}"/>
			<generate_deprecated_IR_V7 value="False"/>
			<input_model value="DIR/defect.onnx"/>
			<input_model_is_text value="False"/>
			<input_shape value="[1,3,240,240]"/>
			<k value="DIR/CustomLayersMapping.xml"/>
			<keep_shape_ops value="True"/>
			<legacy_ir_generation value="False"/>
			<legacy_mxnet_model value="False"/>
			<log_level value="ERROR"/>
			<mean_scale_values value="{}"/>
			<mean_values value="()"/>
			<model_name value="defect"/>
			<output_dir value="DIR"/>
			<placeholder_data_types value="{}"/>
			<placeholder_shapes value="[  1   3 240 240]"/>
			<progress value="False"/>
			<remove_memory value="False"/>
			<remove_output_softmax value="False"/>
			<reverse_input_channels value="False"/>
			<save_params_from_nd value="False"/>
			<scale_values value="()"/>
			<silent value="False"/>
			<static_shape value="False"/>
			<stream_output value="False"/>
			<transform value=""/>
			<unset unset_cli_parameters="batch, counts, disable_fusing, disable_gfusing, finegrain_fusing, input, input_checkpoint, input_meta_graph, input_proto, input_symbol, mean_file, mean_file_offsets, move_to_preprocess, nd_prefix_name, output, pretrained_model_name, saved_model_dir, saved_model_tags, scale, tensorboard_logdir, tensorflow_custom_layer_libraries, tensorflow_custom_operations_config_update, tensorflow_object_detection_api_pipeline_config, tensorflow_use_custom_operations_config, transformations_config"/>
		</cli_parameters>
	</meta_data>
</net>
